Assets/results/Jumper1/CubeAgent/CubeAgent-137222.onnx (onnx, 352348 bytes, 6 tensors)

action_model._discrete_distribution.branches.0.bias f4 [2]
0.028669378 -0.028669365
00000000: 0bdc ea3c 04dc eabc

action_model._discrete_distribution.branches.0.weight f4 [2, 256]
-0.0071347305 0.017797036 -0.0039712023 -0.023877256 -0.008848818 -0.019455098 0.030116599 0.025851587
-0.0014762303 0.006223227 -0.0048462846 0.052320223 -0.0080429325 0.018051637 -0.016182873 0.012550363
-0.00050543295 -0.015652984 0.03140331 -0.023268446 -0.0042925403 0.013495237 -0.007071043 0.03674371
0.034400977 0.031976085 -0.0121139 0.0009244041 -0.012512965 0.012780488 0.009767675 -0.0064191325
0.012694763 0.020482836 -0.0061087864 0.023581438 -0.01665072 0.021602498 0.03227869 0.006572716
0.035096686 0.010163283 0.020709548 0.037869208 -0.014737961 0.028772071 0.008203826 0.052464932
-0.0073866337 -0.0025819982 -0.014768886 0.039515603 0.032768056 0.043787755 0.015467868 -0.013502213
-0.038530618 -0.04643077 -0.0056145336 -0.031283997 0.013033227 -0.063980184 -0.0069572115 -0.019460645
-0.011009975 0.027573712 -0.004715108 0.0037032845 -0.0034338746 0.04240027 0.028104156 -0.011547725
0.0052654403 -0.0071133296 0.022652542 -0.07728524 0.03977909 -0.020507969 0.06539807 -0.0057179225
0.03129839 -0.01538497 0.022526314 -0.017156873 0.0010086263 -0.0017523121 0.01611584 0.006704337
-0.0068792864 0.00407381 0.0145787215 -0.07841644 -0.019520495 0.016724482 0.012759137 0.012794638
0.033268753 0.017241416 -0.010075012 0.0018451835 -0.01062409 0.03037681 0.014189594 -0.004035851
0.018189445 0.012736555 -0.009610258 -0.027947458 0.037741538 -0.009282402 0.015090097 -0.025312006
0.035111252 -0.06757798 0.005189677 -0.012027877 0.022969045 -0.007495857 0.028421791 0.016939132
0.05290252 -0.006039102 0.0074087065 0.061232533 0.016216645 0.021103013 -0.028332677 0.0363359
0.041945625 -0.016455196 0.029054109 0.028943045 0.00018080165 -0.0649223 0.010043942 0.028545568
-0.029084504 0.01242778 -0.031146448 -0.012144645 -0.0021819307 -0.0078087426 0.036153127 -0.010296682
-0.012179919 0.007830276 -0.009162069 0.024158487 0.05177417 -0.005919443 0.001521639 -0.06103869
-0.017085353 0.035736043 0.050735 0.017489059 -0.0026882535 0.0038922338 0.014165085 -0.011277176
0.0106125595 0.02281959 0.038616028 0.033045955 0.017413322 -0.045854867 0.04554715 -0.005047911
-0.015724938 -0.047042083 0.0065112263 0.02433747 0.014724101 -0.010313636 0.002757791 0.051280558
0.015257748 0.042908706 0.019632574 -0.07768537 0.030598272 0.061399758 0.03727617 0.040240332
-0.05130789 0.04005934 -0.013934095 0.04694287 0.0001773787 0.063701496 -0.008154922 -0.0094238855
-0.012697542 -0.0041764337 0.020787321 -0.005643723 -0.001741474 0.007352515 -0.004516045 0.027760811
0.0076357997 0.003887634 -0.0589106 0.01901369 -0.017974243 -0.021898368 -0.006847347 0.051896624
-0.0030472556 0.05613518 0.014457648 -0.013474321 -0.02038882 0.072623506 -0.06914516 -0.011795028
-0.021657012 0.0003001947 0.08119787 -0.002064551 0.044327203 0.038733896 -0.029789101 0.0024693394
0.008516239 -0.04376325 0.016349021 0.041092362 0.000873219 -0.06376149 -0.017128196 -0.011834938
0.016837385 0.03145909 -0.006927157 0.03700249 -0.013168297 0.018578334 -0.011982758 -0.05955116
0.04571044 0.016961183 0.02523998 0.011078386 0.012307975 0.023798672 0.023788104 0.00023518606
0.010353168 0.026943566 -0.011375376 0.013857496 -0.02875481 -0.014767334 0.0037040599 0.016311675
00000000: 75ca e9bb 17cb 913c dc20 82bb 3c9a c3bc
00000010: a2fa 10bc 4c60 9fbc 16b7 f63c b5c6 d33c
00000020: 127e c1ba 36ec cb3b 95cd 9ebb bb4d 563d
00000030: 81c6 03bc 07e1 933c f291 84bc 0aa0 4d3c
00000040: 087f 04ba b03a 80bc c2a0 003d 789d bebc
00000050: 70a8 8cbb 201b 5d3c 35b4 e7bb 9380 163d
00000060: 0ae8 0c3d 5bf9 023d 6179 46bc b653 723a
00000070: 2e03 4dbc 4065 513c 9908 203c 9657 d2bb
00000080: b2fd 4f3c 9fcb a73c 372c c8bb dc2d c13c
00000090: 1767 88bc b9f7 b03c a936 043d f05f d73b
000000a0: 8bc1 0f3d e683 263c 12a7 a93c be1c 1b3d
000000b0: 7d77 71bc 68b3 eb3c 5769 063c 78e5 563d
000000c0: 930b f2bb be36 29bb 33f9 71bc 1ddb 213d
000000d0: cc37 063d ca5a 333d f16c 7d3c 6338 5dbc
000000e0: 48d2 1dbd 312e 3ebd 1ffa b7bb a623 00bd
000000f0: 5189 553c 0b08 83bd 52f9 e3bb ee6b 9fbc
00000100: 2f63 34bc 44e2 e13c 3181 9abb ceb2 723b
00000110: db0a 61bb e8ab 2d3d b03a e63c ab32 3dbc
00000120: b789 ac3b ef16 e9bb d391 b93c b947 9ebd
00000130: 66ef 223d 5400 a8bc 6cef 853d 695d bbbb
00000140: be32 003d 3e11 7cbc 1b89 b83c 928c 8cbc
00000150: e233 843a d6ad e5ba 5e05 843c 0eb0 db3b
00000160: a36b e1bb 987d 853b 97db 6e3c cc98 a0bd
00000170: 72e9 9fbc c801 893c b30b 513c 9aa0 513c
00000180: d144 083d df3d 8d3c aa11 25bc 16da f13a
00000190: aa10 2ebc cad8 f83c 797b 683c 2c3f 84bb
000001a0: 0802 953c fcac 503c 5874 1dbc 11f2 e4bc
000001b0: df96 1a3d 3715 18bc 743c 773c 205b cfbc
000001c0: d1d0 0f3d 5366 8abd 2a0e aa3b 9310 45bc
000001d0: 9429 bc3c ce9f f5bb d1d4 e83c efc3 8a3c
000001e0: 50b0 583d a9e3 c5bb bcc4 f23b f7ce 7a3d
000001f0: c5d8 843c 3ae0 ac3c ee19 e8bc f4d4 143d
00000200: 2dcf 2b3d 0ccd 86bc e202 ee3c f719 ed3c
00000210: 9395 3d39 fcf5 84bd 598f 243c 65d8 e93c
00000220: a042 eebc e39d 4b3c d626 ffbc 55fa 46bc
00000230: b9fe 0ebb 7be0 ffbb 4d15 143d 6ab3 28bc
00000240: 488e 47bc 8f4a 003c 811c 16bc 05e8 c53c
00000250: 2711 543d e3f7 c1bb bb71 c73a b503 7abd
00000260: 95f6 8bbc f55f 123d 81cf 4f3d 3745 8f3c
00000270: 692d 30bb d914 7f3b ac14 683c e8c3 38bc
00000280: 4de0 2d3c 26f0 ba3c d72b 1e3d 325b 073d
00000290: 62a6 8e3c 50d2 3bbd a68f 3a3d f268 a5bb
000002a0: 96d1 80bc 33af 40bd 205c d53b 605f c73c
000002b0: 5b3d 713c 86fa 28bc 0ebc 343b 900b 523d
000002c0: a2fb 793c 0ac1 2f3d 7ed4 a03c 8219 9fbd
000002d0: 3aa9 fa3c 507e 7b3d e6ae 183d 0cd3 243d
000002e0: 3928 52bd 4315 243d d54b 64bc 2b47 403d
000002f0: bbfe 3939 ee75 823d 399c 05bc a466 1abc
00000300: 5a09 50bc 77da 88bb 2c4a aa3c fbee b8bb
00000310: 2c42 e4ba 5eed f03b 55fb 93bb a46a e33c
00000320: bb35 fa3b adc7 7e3b 3e4c 71bd 99c2 9b3c
00000330: b83e 93bc 3564 b3bc b65f e0bb 8e91 543d
00000340: 77b4 47bb 01ee 653d c5df 6c3c 66c3 5cbc
00000350: 7406 a7bc a2bb 943d fa9b 8dbd ef3f 41bc
00000360: 0c6a b1bc 7363 9d39 124b a63d 6b4d 07bb
00000370: 7190 353d 6fa7 1e3d 4608 f4bc a4d4 213b
00000380: b287 0b3c 1841 33bd 62ee 853c 7750 283d
00000390: bce8 643a 6295 82bd 6e50 8cbc 54e7 41bc
000003a0: 8eee 893c 3fdb 003d 34fd e2bb ec8f 173d
000003b0: d7bf 57bc 9731 983c 5453 44bc ebeb 73bd
000003c0: df3a 3b3d 2ef2 8a3c 13c4 ce3c 1e82 353c
000003d0: 64a7 493c 6ff5 c23c 45df c23c 479c 7639
000003e0: 55a0 293c c1b8 dc3c c95f 3abc 8d0a 633c
000003f0: 358f ebbc b0f2 71bc d0bf 723b 10a0 853c

network_body._body_endoder.seq_layers.0.bias f4 [256]
-0.08876485 -0.10870263 0.021357223 0.10090969 0.043624077 0.06743286 0.12640457 -0.03868848
0.04564628 -0.07442549 -0.10604328 0.09556576 -0.012790961 0.028335012 0.024177304 -0.13144259
-0.11334118 0.05078678 -0.063021496 -0.08918709 0.0863597 0.036061987 -0.1512573 -0.11430511
0.00058952207 -0.08595301 -0.111885354 0.11993345 0.07186337 0.03600193 -0.16780591 0.010904777
0.027621794 -0.0530573 0.071050815 -0.143048 0.029852966 -0.15946755 -0.014617846 -0.1612282
0.1243488 0.073098145 -0.12791108 -0.043995537 0.046525322 0.13732275 -0.08384399 0.08618186
0.06521205 0.06675901 0.07143068 0.15283251 -0.008959764 0.13932496 -0.008372372 -0.1494492
0.05054068 -0.0800664 0.03135343 0.08759961 -0.07772678 0.03400969 0.050927382 0.012220276
0.031628232 -0.14131889 0.05028822 -0.1032836 -0.104395166 -0.021621503 0.060867257 -0.08628875
0.07588444 0.13853168 0.103294395 -0.017091773 0.14111848 0.06995067 0.06431634 -0.18517302
-0.11129476 0.04729849 -0.0747555 -0.16991553 0.11736236 -0.15305912 0.038347162 0.15446413
0.077796705 0.059391346 0.05124005 -0.1702624 -0.11106422 -0.11308378 -0.16212045 -0.10348489
-0.17210874 -0.03123875 -0.0073464387 0.015336134 0.06957653 0.09297835 0.07436397 -0.100837864
0.041765545 -0.10386873 -0.1539041 0.11186137 0.07019433 -0.071199834 0.09366375 -0.0734828
0.047111295 -0.15846512 -0.15633474 -0.07252286 0.07965405 0.07688684 -0.08031718 -0.17053491
0.055634547 0.0028833626 0.017902048 -0.0833468 0.11796397 0.10067331 -0.1324459 -0.17077813
-0.07874715 -0.10464651 -0.18785942 -0.10770539 -0.15408601 0.09249428 0.04404069 0.022816146
-0.16871224 -0.18081015 0.09283628 0.036034334 -0.1304582 -0.13256247 -0.108798124 -0.07944751
0.12864287 -0.13369678 0.15699947 0.0029234674 0.03783763 0.044597596 0.074695095 -0.076411374
-0.06946184 -0.08948826 -0.022228738 -0.017753862 -0.12399176 -0.013460768 -0.08385506 0.05283799
-0.059569534 -0.12494454 0.082971305 0.03522654 -0.111794144 0.06723872 0.11470515 -0.008377533
0.08684698 0.08262971 0.089437835 0.086668015 0.13507405 -0.09105118 -0.14756173 -0.07425311
-0.015972907 0.04600872 0.11282127 0.08644041 -0.07610166 -0.19728301 -0.06922368 0.02376748
-0.092833534 -0.080886014 0.07655013 -0.1241143 0.10926567 -0.08740092 0.013311739 0.09618216
0.07940536 -0.07576738 0.052922804 0.016574526 -0.048449617 -0.10423432 -0.15435791 -0.066879176
-0.074238196 -0.009570942 0.07064512 0.07787968 -0.17592351 -0.045867216 0.06777916 0.013066295
-0.12599926 -0.049796876 -0.15123004 0.17321491 -0.10573273 -0.14555223 -0.15619345 0.020704975
0.050423473 0.0052262773 -0.15794776 -0.07097485 -0.026440414 -0.16638729 -0.08403265 0.045558378
-0.121289015 -0.00027191508 0.09203479 0.10436101 -0.18877405 -0.15939306 -0.15860273 0.07238166
-0.02321843 0.049566746 -0.11035526 0.055986203 -0.0048844717 -0.18538332 0.014755945 -0.08311702
-0.035958674 0.14834116 -0.17392312 0.0027231458 -0.091959216 0.060307138 0.06191138 0.091640264
0.042118337 -0.0028216906 0.077264786 -0.15985411 0.017290806 -0.087319694 0.028411463 0.06579071
00000000: 58ca b5bd 7c9f debd 58f5 ae3c bda9 ce3d
00000010: 29af 323d 3d1a 8a3d 3370 013e d077 1ebd
00000020: 98f7 3a3d 646c 98bd 382d d9bd fbb7 c33d
00000030: 2e91 51bc d41e e83c 7b0f c63c e398 06be
00000040: 6c1f e8bd cc05 503d 6a11 81bd b9a7 b6bd
00000050: 5bdd b03d bcb5 133d 32e3 1abe cc18 eabd
00000060: 288a 1a3a 2208 b0bd 2624 e5bd ab9f f53d
00000070: 1a2d 933d c276 133d 50d5 2bbe f3a9 323c
00000080: 1a47 e23c 9d52 59bd 1783 913d 2d7b 12be
00000090: 358e f43c 764b 23be b17f 6fbc 0119 25be
000000a0: 95aa fe3d 7bb4 953d 1ffb 02be aa34 34bd
000000b0: 5691 3e3d 569e 0c3e 66b6 abbd 1d80 b03d
000000c0: e58d 853d f3b8 883d 404a 923d 2080 1c3e
000000d0: f9cb 12bc 34ab 0e3e 462c 09bc 3609 19be
000000e0: be03 4f3d daf9 a3bd 746c 003d 6d67 b33d
000000f0: 382f 9fbd bf4d 0b3d 3b99 503d 8d37 483c
00000100: 9b8c 013d e6b5 10be 05fb 4d3d 5a86 d3bd
00000110: 22cd d5bd 941f b1bc f24f 793d 28b8 b0bd
00000120: 4d69 9b3d 40db 0d3e 038c d33d 0c04 8cbc
00000130: 5d81 103e 4c42 8f3d 49b8 833d ff9d 3dbe
00000140: 82ee e3bd 10bc 413d 6919 99bd 56fe 2dbe
00000150: ad5b f03d 88bb 1cbe ea11 1d3d d82b 1e3e
00000160: e153 9f3d 5744 733d 16e1 513d 4459 2ebe
00000170: a375 e3bd 7898 e7bd e702 26be e3ef d3bd
00000180: 463d 30be 68e8 ffbc 65ba f0bb 6844 7b3c
00000190: 247e 8e3d 6f6b be3d 234c 983d 1584 cebd
000001a0: 5912 2b3d 21b9 d4bd 0999 1dbe 9317 e53d
000001b0: 0bc2 8f3d 38d1 91bd c8d2 bf3d 267e 96bd
000001c0: c6f7 403d ae44 22be 3716 20be dd86 94bd
000001d0: aa21 a33d d976 9d3d 557d a4bd b4a0 2ebe
000001e0: 0de1 633d ccf6 3c3b 51a7 923c bab1 aabd
000001f0: 1897 f13d cf2d ce3d e69f 07be 76e0 2ebe
00000200: 3046 a1bd e950 d6bd 385e 40be a594 dcbd
00000210: b9c8 1dbe a46d bd3d 0364 343d ede8 ba3c
00000220: e7c2 2cbe 4c26 39be f320 be3d bd98 133d
00000230: d696 05be 75be 07be 8dd1 debd 60b5 a2bd
00000240: f5ba 033e cfe7 08be 78c4 203e a597 3f3b
00000250: a1fb 1a3d f8ab 363d bef9 983d 917d 9cbd
00000260: 0242 8ebd 9f45 b7bd 0b19 b6bc 8c70 91bc
00000270: 64ef fdbd 8e8a 5cbc 34bc abbd a66c 583d
00000280: 2fff 73bd ece2 ffbd dcec a93d b449 103d
00000290: 54f4 e4bd 74b4 893d 89ea ea3d ec41 09bc
000002a0: d4dc b13d c439 a93d 2f2b b73d 007f b13d
000002b0: da50 0a3e 0b79 babd 6c1a 17be 0412 98bd
000002c0: 9dd9 82bc a473 3c3d d70e e73d ab07 b13d
000002d0: 30db 9bbd 8f04 4abe 25c5 8dbd 05b4 c23c
000002e0: 821f bebd 91a7 a5bd 51c6 9c3d a32f febd
000002f0: aec6 df3d 41ff b2bd 7b19 5a3c 27fb c43d
00000300: 479f a23d ee2b 9bbd 95c5 583d 4dc7 873c
00000310: 1b73 46bd ce78 d5bd 0010 1ebe f3f7 88bd
00000320: 320a 98bd 71cf 1cbc 64ae 903d 627f 9f3d
00000330: 4b25 34be 43df 3bbd cdcf 8a3d 0314 563c
00000340: f305 01be cff7 4bbd 0cdc 1abe 405f 313e
00000350: 678a d8bd a50b 15be 2df1 1fbe 7b9d a93c
00000360: d888 4e3d 3141 ab3b 0fbd 21be 435b 91bd
00000370: 9199 d8bc 6e61 2abe 4f19 acbd 6c9b 3a3d
00000380: 6066 f8bd d38f 8eb9 bc7c bc3d 3abb d53d
00000390: fc4d 41be ef37 23be c168 22be d63c 943d
000003a0: 9434 bebc 8006 4b3d f001 e2bd ca51 653d
000003b0: eb0d a0bb 20d5 3dbe ebc2 713c 4239 aabd
000003c0: 6749 13bd bfe6 173e e718 32be ce76 323b
000003d0: 1d55 bcbd 9e04 773d ca96 7d3d e4ad bb3d
000003e0: 4784 2c3d 1dec 38bb 003d 9e3d ccb0 23be
000003f0: 73a5 8d3c abd4 b2bd 28bf e83c 48bd 863d

network_body._body_endoder.seq_layers.0.weight f4 [256, 82]
-0.15737532 0.18263151 -0.01373323 0.055324443 0.05318646 0.014727431 -0.04660344 0.050264694
-0.10623175 0.0021109143 -0.1593809 0.09995932 0.07980373 0.187709 -0.14188862 -0.091582716
-0.14557874 -0.040442165 -0.032577883 0.04500938 0.17266023 -0.007864175 -0.1390222 -0.00849849
-0.049843542 0.031280097 -0.041645605 0.16602851 -0.009939518 -0.096750475 0.17546573 0.14787169
0.023438947 -0.05550164 -0.013949396 -0.023907825 -0.10417519 -0.08072083 -0.081366636 0.0031827467
-0.37233418 -0.082680546 -0.061254095 -0.2236866 -0.01843891 0.11363359 -0.10863484 -0.16365418
0.073013335 -0.056385312 -0.10290848 -0.030074066 -0.12432435 -0.1982659 -0.10839571 0.063829325
0.09518707 0.07122923 -0.30835354 -0.0032799721 -0.04934167 0.08472353 0.071651496 0.17387791
-0.055405352 -0.31454942 -0.15634619 0.008620065 -0.05379771 -0.046922833 -0.051080134 0.10901609
-0.01789867 0.09719995 -0.03050069 0.11081186 0.0077411383 0.06281182 -0.076805465 -0.11517049
-0.22563449 -0.03819772 0.14718872 0.10044621 0.15503983 -0.02229455 0.008178293 0.203994
0.011271576 -0.02649253 0.085373566 0.04917662 -0.013823959 0.17503884 0.093924776 -0.10847504
-0.12216148 0.119166605 0.055017896 -0.110642344 0.024714608 0.24348745 -0.06871273 -0.040146697
-0.20742895 0.028234161 -0.02614844 -0.10044025 -0.048591174 0.039871994 -0.02093478 0.013900013
-0.05602211 0.11312517 -0.0013100283 -0.06313044 0.036084235 -0.10062534 -0.05941929 0.29814953
-0.10807277 0.0116362935 0.09201222 0.10123113 -0.025518188 0.022971196 -0.07649183 0.065773554
0.20002154 -0.28972176 0.009348713 -0.11372926 0.0073267515 0.048911385 -0.07015631 0.07430572
0.08234064 -0.025898002 -0.15529117 -0.11225051 0.3563428 -0.15929931 -0.15154545 -0.16974704
-0.008223338 -0.08024599 0.043576214 0.06597574 -0.10684933 -0.17459019 0.13769498 -0.10943314
0.14924377 -0.08480355 0.087145254 -0.15189089 -0.0074264444 -0.0697572 -0.07792258 -0.14810966
0.012580824 -0.0024347724 0.13317749 -0.17644827 0.03824424 0.08018167 -0.090119414 0.19464028
-0.10210437 0.015313581 0.059094094 0.086470984 -0.1620935 -0.01304857 -0.09734944 -0.16277598
-0.15647475 -0.08534684 -0.09921679 -0.013484875 -0.014520713 -0.06567145 -0.13616587 -0.102055006
0.028048344 0.011686243 0.11074168 -0.14758334 0.03627772 0.1288043 0.024043726 -0.029603994
-0.06658958 0.14073937 -0.12650393 0.05951841 -0.04719586 0.021064347 0.20649484 -0.11085679
0.06542937 0.011447878 0.3519725 0.08839619 0.07393683 -0.0330978 0.15071851 -0.0040066573
7.841954e-05 -0.08014019 0.09083024 0.07964524 -0.07502045 -0.08213091 -0.02977946 0.12700722
0.056634836 -0.023198161 -0.16468568 0.033059303 -0.032014094 0.028887076 0.10205778 -0.045190513
-0.0961359 0.012927373 0.09522266 -0.14439783 -0.042727686 -0.10650984 0.16217607 -0.0012296517
0.13874851 -0.049905524 0.22452958 0.114741236 -0.21710713 0.03921652 0.02677819 0.08102103
-0.002191449 0.03391371 0.07732144 0.12042754 0.008076755 0.037599813 -0.040965002 0.1057791
-0.010415918 0.019962685 -0.013573493 0.061666958 0.06740356 -0.13460799 0.037300613 0.021853877
00000000: ff26 21be c103 3b3e 5701 61bc e29b 623d
00000010: 0cda 593d 534b 713c 40e3 3ebd 5ae2 4d3d
00000020: 0890 d9bd 4457 0a3b bf34 23be 79b7 cc3d
00000030: 2370 a33d ca36 403e 404b 11be b88f bbbd
00000040: 9812 15be afa6 25bd 6370 05bd c15b 383d
00000050: d8cd 303e bed8 00bc d65b 0ebe 403d 0bbc
00000060: be28 4cbd 8f1f 003d 9594 2abd 6103 2a3e
00000070: 5cd9 22bc 1d25 c6bd 4aad 333e ad6b 173e
00000080: 0903 c03c b055 63bd 028c 64bc 58da c3bc
00000090: cd59 d5bd f650 a5bd 8da3 a6bd a195 503b
000000a0: 96a2 bebe 6b54 a9bd 93e5 7abd 1a0e 65be
000000b0: 320d 97bc bab8 e83d f17b debd f694 27be
000000c0: 0488 953d 49f4 66bd aec1 d2bd e35d f6bc
000000d0: c49d febd 3706 4bbe 92fe ddbd f3b8 823d
000000e0: 70f1 c23d a1e0 913d 84e0 9dbe cdf4 56bb
000000f0: 7e1a 4abd 8883 ad3d 05be 923d 0d0d 323e
00000100: b9f0 62bd 9f0c a1be 3719 20be 2c3b 0d3c
00000110: fd5a 5cbd 2832 40bd 6739 51bd d443 df3d
00000120: 3ba0 92bc c410 c73d 95dc f9bc 54f1 e23d
00000130: 60a9 fd3b 7ca3 803d 2f4c 9dbd 82de ebbd
00000140: ba0c 67be 3675 1cbd a4b8 163e beb6 cd3d
00000150: c3c2 1e3e 0fa3 b6bc 3ffe 053c cee3 503e
00000160: 6bac 383c dd06 d9bc 56d8 ae3d 6c6d 493d
00000170: e37d 62bc 623d 333e a25b c03d 2928 debd
00000180: cc2f fabd 9f0d f43d 725a 613d 7498 e2bd
00000190: 4a76 ca3c c654 793e 43b9 8cbd dd70 24bd
000001a0: 4168 54be 544b e73c 4135 d6bc 9eb3 cdbd
000001b0: 8a07 47bd d150 233d 6a7f abbc e1bc 633c
000001c0: 7177 65bd 2bae e73d 41b5 abba 884a 81bd
000001d0: 10cd 133d a914 cebd a461 73bd 0ea7 983e
000001e0: 4255 ddbd 27a6 3e3c e770 bc3d 4452 cf3d
000001f0: 850b d1bc 172e bc3c c0a7 9cbd 49b4 863d
00000200: 72d2 4c3e 6956 94be 582b 193c e3ea e8bd
00000210: 3f15 f03b 4e57 483d 1dae 8fbd 992d 983d
00000220: 36a2 a83d 0c28 d4bc a604 1fbe 98e3 e5bd
00000230: 9072 b63e 5c1f 23be bb2e 1bbe 2bd2 2dbe
00000240: 2ebb 06bc 0258 a4bd f97c 323d 4a1e 873d
00000250: d2d3 dabd c5c7 32be eaff 0c3e 7b1e e0bd
00000260: 5cd3 183e 7cad adbd 3679 b23d 4989 1bbe
00000270: 8859 f3bb dddc 8ebd e095 9fbd 0faa 17be
00000280: cd1f 4e3c b490 1fbb ae5f 083e dbae 34be
00000290: fea5 1c3d 4a36 a43d 8790 b8bd c84f 473e
000002a0: 191c d1bd d0e5 7a3c a60c 723d b317 b13d
000002b0: d7fb 25be abc9 55bc 255f c7bd bfae 26be
000002c0: eb3a 20be 53ca aebd 2c32 cbbd aaef 5cbc
000002d0: 49e8 6dbc c17e 86bd 116f 0bbe 3702 d1bd
000002e0: a4c5 e53c a877 3f3c 89cc e23d 1620 17be
000002f0: f297 143d 46e5 033e 59f7 c43c 1384 f2bc
00000300: 1e60 88bd fb1d 103e 3f8a 01be 94c9 733d
00000310: 7250 41bd 238f ac3c 6273 533e e208 e3bd
00000320: d5ff 853d e18f 3b3c bd35 b43e 1009 b53d
00000330: 316c 973d 8f91 07bd f455 1a3e 474a 83bb
00000340: 2c75 a438 8a20 a4bd 3405 ba3d 0b1d a33d
00000350: 52a4 99bd 4034 a8bd 0ef4 f3bc 2e0e 023e
00000360: eef9 673d 120a bebc 5da3 28be 3169 073d
00000370: 3621 03bd 97a4 ec3c ab03 d13d b019 39bd
00000380: e6e2 c4bd 55cd 533c 1904 c33d 06dd 13be
00000390: 3a03 2fbd d521 dabd 7c11 263e 442c a1ba
000003a0: 1714 0e3e bc69 4cbd 15eb 653e 74fd ea3d
000003b0: 5551 5ebe 80a1 203d ef5d db3c 5bee a53d
000003c0: 6a9e 0fbb 1ae9 0a3d b45a 9e3d b7a2 f63d
000003d0: 5e54 043c 4302 1a3d ebca 27bd b6a2 d83d
000003e0: 87a7 2abc c988 a33c 5b63 5ebc 7e96 7c3d
000003f0: e10a 8a3d add6 09be 87c8 183d e706 b33c

network_body._body_endoder.seq_layers.2.bias f4 [256]
-0.14659895 0.06387975 -0.15071425 -0.026631493 -0.14634839 -0.03426559 0.02805971 0.051827632
-0.042185884 0.029940998 -0.025005978 0.04954566 -0.12016014 -0.034514308 -0.00060898607 0.019815868
-0.13128679 -0.14074777 0.033112157 0.039240733 -0.10104206 0.016226351 -0.017733192 0.035802938
0.040708814 0.040329292 -0.13637799 0.023127973 -0.12359227 0.02556805 0.015761485 -0.14772545
-0.05513952 0.0062598716 -0.12914449 0.035664756 -0.12521318 0.046539716 0.03286932 0.02828897
0.037102614 0.026392665 0.031112563 0.03697633 -0.061954547 0.042328563 -0.084303334 0.052714776
-0.025517851 -0.148349 -0.1438328 0.050367344 0.039507195 0.022346828 0.017473454 -0.15184803
-0.006914758 -0.0118118785 -0.0283077 -0.034549993 0.025294164 0.003538815 -0.13960735 -0.035573415
-0.087493524 0.034071904 -0.13943326 -0.11899712 -0.14703648 0.022489527 0.049362145 -0.12783897
0.0063986517 -0.028780196 0.030932391 0.028025446 0.059584767 -0.06130837 0.05495133 -0.053313874
0.05830116 -0.15642522 0.029088132 -0.016104255 0.017186176 -0.12719674 0.015142644 0.014449817
-0.1321738 0.005752455 0.018168114 -0.0006560612 -0.15925123 0.0155572435 0.023361757 0.01887627
0.041679647 0.046833888 -0.06843388 -0.05250489 -0.053721048 0.011962425 0.02053268 -0.13787954
0.0046312795 0.040341873 -0.058622744 -0.025772717 0.052503485 -0.054557316 0.034352403 -0.01487864
0.028248794 0.03126094 -0.029908799 -0.15735358 0.05342506 0.030933522 0.034800697 0.049848936
0.051496606 -0.15737593 -0.028189788 0.04954599 0.026797233 0.030309644 -0.024724431 0.04508711
0.04025536 -0.14996183 -0.0077323103 0.033908255 -0.0064957817 0.015221302 0.026574276 0.04332811
-0.011131439 0.026705567 -0.049039576 -0.066409856 -0.030235427 -0.0589391 0.048650637 -0.14308982
-0.15606962 -0.010357919 -0.14128436 0.033813626 0.056874897 -0.15384895 -0.102110565 -0.016447863
-0.05086491 -0.001875119 -0.021093076 0.038010083 -0.13762532 -0.13674726 0.033229124 -0.13566202
0.0134212235 0.047435164 0.035029158 0.043493558 0.023621619 -0.016467405 0.049474742 -0.10158815
-0.043636106 0.066778444 0.016238203 0.020653473 0.045062464 -0.09013556 -0.02433739 0.05501088
0.04402295 0.05501021 0.023174997 -0.008688467 0.03574048 -0.041518167 0.033436745 0.063933715
-0.027968962 0.051407143 -0.15298386 0.049975485 -0.015458277 0.017713187 -0.042540986 -0.12691668
-0.05821875 -0.13784488 0.020326678 -0.13029386 -0.12127295 0.028363205 -0.15411986 0.03598624
0.013448833 -0.14040747 0.080402985 0.05109537 -0.064719774 -0.044729892 -0.1009969 -0.04461739
-0.13878775 0.057370856 0.02927505 -0.15347357 -0.019686129 0.053301077 -0.02007826 -0.05230278
-0.05091157 -0.12402296 -0.062531315 -0.1383041 -0.020633765 0.019576557 -0.0046601365 -0.12204296
0.02178082 -0.03426664 0.015307361 0.043086015 -0.059557952 0.058227688 -0.04515938 -0.09816951
0.052902326 0.02694503 -0.13686122 0.056744177 -0.12398009 0.031437017 -0.13274927 -0.015860502
0.05138059 0.03824808 0.024988346 0.009899381 -0.017226223 0.04539828 0.057867777 -0.15107453
0.02520135 0.003456589 -0.14896232 0.025060741 -0.031830642 -0.049001753 -0.08295142 0.017184159
00000000: 091e 16be 63d3 823d d654 1abe 4a2a dabc
00000010: 5adc 15be 135a 0cbd 7add e53c 3649 543d
00000020: 1bcb 2cbd d346 f53c 56d9 ccbc 64f0 4a3d
00000030: 8516 f6bd e05e 0dbd 5da4 1fba e354 a23c
00000040: 0b70 06be 2f20 10be 9da0 073d e4ba 203d
00000050: 24ef cebd 20ed 843c 3345 91bc 1aa6 123d
00000060: 49be 263d 5430 253d aca6 0bbe e076 bd3c
00000070: f21d fdbd 1674 d13c 3b1e 813c 5745 17be
00000080: fad9 61bd 9c1f cd3b 743e 04be 3515 123d
00000090: e237 00be 6ea0 3e3d fba1 063d 45be e73c
000000a0: e9f8 173d 6e35 d83c c6df fe3c 7e74 173d
000000b0: 0dc4 7dbd b760 2d3d 3aa7 acbd 73eb 573d
000000c0: d00a d1bc cde8 17be e848 13be fd4d 4e3d
000000d0: 4cd2 213d b210 b73c 7d24 8f3c 0d7e 1bbe
000000e0: 3295 e2bb 9c86 41bc 8de5 e7bc 4b84 0dbd
000000f0: b535 cf3c 77eb 673b 3bf5 0ebe 6eb5 11bd
00000100: ce2f b3bd fb8e 0b3d 98c7 0ebe c3b4 f3bd
00000110: bb90 16be f53b b83c f62f 4a3d 38e8 02be
00000120: c8ab d13b 72c4 ebbc ed65 fd3c 9f95 e53c
00000130: 280f 743d 7c1e 7bbd a514 613d a65f 5abd
00000140: 32cd 6e3d ef2d 20be 3c4a ee3c 12ed 83bc
00000150: 06ca 8c3c dd3f 02be da18 783c edbe 6c3c
00000160: 9258 07be 177f bc3b 4cd5 943c 86fb 2bba
00000170: c112 23be cfe3 7e3c 2861 bf3c 68a2 9a3c
00000180: 47b8 2a3d e4d4 3f3d 1027 8cbd 5e0f 57bd
00000190: 9a0a 5cbd 0cfe 433c 2734 a83c 4b30 0dbe
000001a0: fdc1 973b 853d 253d 671e 70bd 4e21 d3bc
000001b0: e50d 573d 7e77 5fbd 1bb5 0c3d 8ac5 73bc
000001c0: 046a e73c 790b 003d 4c03 f5bc 4c21 21be
000001d0: 3cd4 5a3d 4c68 fd3c 2d8b 0e3d 662e 4c3d
000001e0: 1bee 523d 2827 21be 45ee e6bc bcf0 4a3d
000001f0: df85 db3c ee4b f83c e48a cabc 43ad 383d
00000200: cee2 243d 988f 19be 525f fdbb 62e3 0a3d
00000210: 91da d4bb c562 793c 4cb2 d93c d178 313d
00000220: a460 36bc a2c5 da3c b9dd 48bd e401 88bd
00000230: 49b0 f7bc 206a 71bd e445 473d 2386 12be
00000240: b7d0 1fbe 43b4 29bc d9ac 10be 2880 0a3d
00000250: a7f5 683d 948a 1dbe 581f d1bd abbd 86bc
00000260: b957 50bd 8ec6 f5ba 63cb acbc 76b0 1b3d
00000270: a7ed 0cbe 7907 0cbe 431b 083d fcea 0abe
00000280: b1e4 5b3c 604b 423d bc7a 0f3d 4d26 323d
00000290: 2082 c13c a7e6 86bc 07a6 4a3d 730d d0bd
000002a0: c6bb 32bd 23c3 883d fb05 853c 7931 a93c
000002b0: 6b93 383d fe98 b8bd 355f c7bc 1753 613d
000002c0: 6951 343d 6352 613d 7ed9 bd3c 125a 0ebc
000002d0: 9c64 123d f40e 2abd f8f4 083d aeef 823d
000002e0: 2a1f e5bc 4c90 523d cda7 1cbe 18b3 4c3d
000002f0: b744 7dbc 3f1b 913c 753f 2ebd 72f6 01be
00000300: c976 6ebd 3527 0dbe 2284 a63c c16b 05be
00000310: f45d f8bd f459 e83c 99d1 1dbe 4f66 133d
00000320: 7e58 5c3c fac6 0fbe 52aa a43d 6149 513d
00000330: cd8b 84bd b136 37bd 76d7 cebd b9c0 36bd
00000340: 601e 0ebe b4fd 6a3d 3bd2 ef3c 2d28 1dbe
00000350: ce44 a1bc 3b52 5a3d 2a7b a4bc 713b 56bd
00000360: a788 50bd c0ff fdbd 6b10 80bd 979f 0dbe
00000370: 2408 a9bc 045f a03c 0fb4 98bb a9f1 f9bd
00000380: b16d b23c 2d5b 0cbd bacb 7a3c f67a 303d
00000390: 0af3 73bd 2880 6e3d 0bf9 38bd 190d c9bd
000003a0: 1cb0 583d d3bb dc3c 5925 0cbe 956c 683d
000003b0: 46e9 fdbd 1ac4 003d 6def 07be e2ed 81bc
000003c0: 7474 523d 05aa 1c3d 5cb4 cc3c 0331 223c
000003d0: 021e 8dbc 8cf3 393d c306 6d3d 48b3 1abe
000003e0: 1073 ce3c f187 623b 9489 18be 2f4c cd3c
000003f0: d960 02bd 10b6 48bd 6fe2 a9bd cbc5 8c3c

network_body._body_endoder.seq_layers.2.weight f4 [256, 256]
0.004278128 0.23521566 -0.045769174 -0.08117256 0.0385947 0.06777491 -0.15279992 0.024066264
-0.052044854 0.11606452 -0.01341465 -0.10362543 0.017243883 -0.028577823 -0.08621803 0.2958851
0.11292375 -0.09493662 -0.044120364 0.088696264 -0.11499168 -1.5602995e-05 0.20535977 0.15688588
0.03960767 0.13853733 0.025512513 -0.17259665 -0.10536015 -0.011742539 0.11427904 0.029074837
-0.12299781 -0.05191985 -0.11903416 0.094480895 -0.04224399 0.14416927 0.048626266 -0.0011612485
-0.24532373 -0.028464904 0.17086975 -0.11985458 0.0060750893 0.027712112 -0.011921226 -0.08414258
-0.11028917 -0.005862188 -0.11254695 -0.18742397 -0.08779103 0.0024317882 -0.10440421 0.13233072
0.057246916 0.15691622 -0.16476758 -0.02949295 -0.015565381 0.026106197 0.050594248 0.052957527
0.048748046 0.10644723 -0.033222806 0.10598858 0.15028869 -0.035368577 -0.1448869 0.1759618
0.02809937 -0.14717853 -0.018704955 0.023105215 -0.20418103 -0.078430735 -0.08886532 0.12866339
0.14716816 0.016167404 0.054310974 0.23527394 -0.100758344 0.020706633 0.04960449 -0.14023326
-0.07898471 -0.14081311 -0.026917359 0.1828931 0.022574263 0.008218009 0.22331226 0.07310019
0.11957488 0.035832897 0.05519671 -0.015360188 -0.15473187 -0.21496773 -0.114687964 0.09846768
-0.038174808 0.15538575 0.114398316 -0.17889214 -0.099087276 0.045536533 0.019578405 -0.08470573
0.085945286 0.09359447 0.15143068 0.091283396 -0.05362752 -0.19239873 -0.05164967 0.048631012
-0.08874471 -0.08064886 0.013224768 0.088338725 -0.02238846 -0.0859337 0.09735984 0.21224801
0.11319839 0.14986102 0.10032209 0.11481665 0.1790604 -0.2154059 0.11706773 0.08890486
0.10439489 0.035870835 -0.21674912 -0.14107198 -0.053846322 0.103705086 0.10249875 0.05192665
-0.10148063 0.0629677 -0.030279653 -0.09589258 -0.024811758 -0.049176704 -0.0987003 0.066421814
0.13883401 0.17015833 -0.05770456 -0.03186688 0.079784974 -0.05916992 0.067720994 0.0026986985
-0.00092753523 0.073126264 0.053611238 -0.010266088 0.09347979 -0.21447952 -0.14122869 0.07038144
-0.15042871 -0.10127608 -0.050385416 -0.055891767 -0.24922898 0.08266872 0.19912116 0.012804812
-0.07396086 -0.069654666 -0.082123004 -0.14140289 0.1094296 0.18092667 0.037542555 -0.18795195
0.074671134 0.05066193 -0.095635384 0.11665377 -0.16744767 0.076050855 -0.02055669 -0.09069883
-0.12653151 0.051806856 -0.021295503 -0.09506236 -0.038043328 0.15728164 0.15667431 0.14143388
0.04374006 -0.14591527 -0.043005496 -0.13535433 0.13992201 0.011662718 -0.11256175 -0.07461407
0.024991494 0.067824975 0.07648132 -0.22533055 0.1168201 0.042220626 0.021622397 0.045945957
-0.085985385 0.042322606 0.11072279 0.16805504 0.02406249 0.13607877 0.114913225 0.04730312
0.07541164 -0.13215093 0.023228956 -0.13084103 0.10861626 0.23455048 0.22015347 -0.14729263
0.023742942 -0.016519396 0.10472907 -0.102225855 -0.10755406 0.20101371 -0.15178241 0.117516495
-0.014568541 -0.13921222 0.07466162 -0.07733921 0.087432705 0.08459545 -0.084354244 -0.13952935
0.02866853 0.015259237 -0.09767606 0.1261593 -0.035652343 0.0052112564 -0.04931194 -0.09716685
00000000: 8a2f 8c3b 60dc 703e 7578 3bbd cd3d a6bd
00000010: 7a15 1e3d 92cd 8a3d 9577 1cbe 9d26 c53c
00000020: fc2c 55bd 3cb3 ed3d 1fc9 5bbc 9239 d4bd
00000030: 0b43 8d3c 0a1c eabc 1493 b0bd 407e 973e
00000040: 9144 e73d 216e c2bd 8eb7 34bd 63a6 b53d
00000050: c280 ebbd 2de3 82b7 d549 523e b1a6 203e
00000060: a73b 223d bbdc 0d3e 9eff d03c 2dbd 30be
00000070: 10c7 d7bd c763 40bc 210b ea3d 5a2e ee3c
00000080: 47e6 fbbd e9a9 54bd 2fc8 f3bd 337f c13d
00000090: 0908 2dbd 1ca1 133e 562c 473d 0935 98ba
000000a0: 2536 7bbe 3b2f e9bc 7bf8 2e3e 5176 f5bd
000000b0: 8b11 c73b 8304 e33c 3f51 43bc f252 acbd
000000c0: 4adf e1bd 9917 c0bb 047f e6bd 12ec 3fbe
000000d0: c9cb b3bd a35e 1f3b e0d1 d5bd b481 073e
000000e0: be7b 6a3d a5ae 203e d5b8 28be 339b f1bc
000000f0: f105 7fbc aadc d53c ea3b 4f3d fee9 583d
00000100: 08ac 473d 0101 da3d a314 08bd 8a10 d93d
00000110: 47e5 193e a4de 10bd 3b5d 14be 552f 343e
00000120: a630 e63c f8b5 16be 223b 99bc 2647 bd3c
00000130: d514 51be 4ba0 a0bd 05ff b5bd 56c0 033e
00000140: 40b3 163e 8171 843c 2f75 5e3d a7eb 703e
00000150: 645a cebd f5a0 a93c 142e 4b3d 4f99 0fbe
00000160: bcc2 a1bd 5031 10be cb81 dcbc 5448 3b3e
00000170: a9ed b83c d4a4 063c f8ab 643e 8db5 953d
00000180: ade3 f43d 84c5 123d f215 623d 4ca9 7bbc
00000190: 0872 1ebe 8020 5cbe 86e1 eabd 6ca9 c93d
000001a0: 305d 1cbd 711d 1f3e aa49 ea3d 802f 37be
000001b0: 45ee cabd 8484 3a3d e462 a03c 337a adbd
000001c0: 1504 b03d 75ae bf3d a510 1b3e caf2 ba3d
000001d0: 88a8 5bbd 2c04 45be 9b8e 53bd 5031 473d
000001e0: c9bf b5bd 3b2b a5bd b3ac 583c efea b43d
000001f0: 0168 b7bc 02fe afbd 9964 c73d 8b57 593e
00000200: 8fd4 e73d 2b75 193e ab75 cd3d fe24 eb3d
00000210: 9c5b 373e 5d93 5cbe 35c1 ef3d c013 b63d
00000220: fdcc d53d 4ced 123d 7bf3 5dbe 2c75 10be
00000230: f68d 5cbd 5563 d43d ddea d13d 0ab1 543d
00000240: 14d5 cfbd 36f5 803d 090d f8bc 5463 c4bd
00000250: 0742 cbbc 836d 49bd 6223 cabd 2908 883d
00000260: 812a 0e3e fc3d 2e3e 9e5b 6cbd d886 02bd
00000270: 4e66 a33d 285c 72bd 4eb1 8a3d a6dc 303b
00000280: d625 73ba 39c3 953d 7597 5b3d 1833 28bc
00000290: 5572 bf3d 85a0 5bbe 419e 10be 2524 903d
000002a0: fc09 1abe d569 cfbd f060 4ebd c4ee 64bd
000002b0: e235 7fbe 384e a93d 6be6 4b3e 46cb 513c
000002c0: cb78 97bd 1ba7 8ebd 1b30 a8bd ebcb 10be
000002d0: a01c e03d d744 393e 39c6 193d 7a76 40be
000002e0: 2eed 983d e282 4f3d 7cdc c3bd 2ce8 ee3d
000002f0: 6777 2bbe 8dc0 9b3d 8166 a8bc 4fc0 b9bd
00000300: 7a91 01be 6d33 543d e873 aebc 0eb0 c2bd
00000310: 52d3 1bbd 700e 213e 3b6f 203e 0bd4 103e
00000320: c728 333d d06a 15be 8826 30bd 539a 0abe
00000330: b747 0f3e fc14 3f3c c686 e6bd 43cf 98bd
00000340: f6ba cc3c d2e7 8a3d 3da2 9c3d 0dbd 66be
00000350: 603f ef3d 89ef 2c3d 7421 b13c d431 3c3d
00000360: 1b19 b0bd 785a 2d3d a1c2 e23d 9f16 2c3e
00000370: b31e c53c 3c58 0b3e a057 eb3d ebc0 413d
00000380: 6b71 9a3d 9352 07be a74a be3c 31fb 05be
00000390: 3472 de3d 002e 703e e96f 613e e1d3 16be
000003a0: 8f80 c23c af53 87bc 327c d63d ca5b d1bd
000003b0: 4e45 dcbd 8ad6 4d3e d96c 1bbe 7dac f03d
000003c0: e4b0 6ebc a68d 0ebe 31e8 983d 0564 9ebd
000003d0: eb0f b33d 6140 ad3d ebc1 acbd c8e0 0ebe
000003e0: 44da ea3c e101 7a3c 630a c8bd e72f 013e
000003f0: 3108 12bd 30c3 aa3b 51fb 49bd 6aff c6bd
