Assets/results/Jumper1/CubeAgent.onnx (onnx, 352348 bytes, 6 tensors)

action_model._discrete_distribution.branches.0.bias f4 [2]
0	0x3cb41dce	0.021986868
1	0xbcb41dc1	-0.021986844

action_model._discrete_distribution.branches.0.weight f4 [2, 256]
0	0x3ba6b534	0.005087519
1	0x3c8658ce	0.016399767
2	0x3bcd1ddf	0.0062596644
3	0xbd05d833	-0.032676887
4	0x3adbc74a	0.0016767767
5	0xbc9f827c	-0.0194714
6	0x3ceb09a7	0.028691126
7	0x3cf96f47	0.030448569
8	0xbbc839ab	-0.00611039
9	0x3c10e311	0.008843199
10	0xbb0889c9	-0.002083408
11	0x3d7f49c2	0.0623262
12	0x3b0ff6ea	0.002196724
13	0x3d60ca9b	0.05488072
14	0xbcbcd5d0	-0.023051172
15	0x3c7f9426	0.015599286
16	0x3c2b1fa1	0.010444553
17	0xbbb1e752	-0.005429187
18	0x3cd14d56	0.025549572
19	0xbd0982b7	-0.033571925
20	0x3abd8950	0.0014460478
21	0x3c3ad361	0.011402936
22	0xbc8c6dec	-0.017142259
23	0x3d2bb3cc	0.041919515
24	0x3d18ef76	0.037337743
25	0x3d24a48a	0.04019598
26	0x38849f64	6.323939e-05
27	0x3a8e2eb6	0.0010847661
28	0xbb47584e	-0.0030417624
29	0x3c706d77	0.014674536
30	0x3c8cb36b	0.017175397
31	0x3b5a454d	0.0033305467
32	0x3d0eca54	0.034860924
33	0x3d122ada	0.035685398
34	0x3b872f0f	0.004125483
35	0x3cbdc333	0.023164367
36	0xbc04a42d	-0.008095783
37	0x3cee44b5	0.029085496
38	0x3d0aeaec	0.033915445
39	0x3b922bea	0.0044608014
40	0x3d26e1f6	0.040742837
41	0x3c0559bd	0.008139071
42	0x3cce765f	0.025202928
43	0x3d27aa3c	0.040933833
44	0xbc43b3e8	-0.011944748
45	0x3d0a8efb	0.033827763
46	0x3d2ca611	0.04215056
47	0x3d6e3507	0.05815604
48	0xbc1afecf	-0.009460165
49	0x3c357184	0.0110744275
50	0xbbb4be5c	-0.0055158567
51	0x3d29611a	0.04135237
52	0x3d200b27	0.039073136
53	0x3d66878f	0.056281622
54	0x3c3e1c66	0.01160345
55	0xbab70b36	-0.0013965133
56	0xbd34310e	-0.043992095
57	0xbd6d46c9	-0.057928834
58	0xbc56f9d3	-0.013121086
59	0xbd165650	-0.036703408
60	0x3c43ed67	0.011958457
61	0xbd9c96bf	-0.0764594
62	0x3b80a385	0.003925743
63	0xbcf76988	-0.030201688
64	0xbbe5b567	-0.0070101502
65	0x3d0b2bfe	0.0339775
66	0x3b87f05d	0.0041485266
67	0x3c5ebed1	0.013595299
68	0x3c0975f9	0.008389943
69	0x3d6de8fc	0.05808352
70	0x3cee2612	0.029070888
71	0xba90c45f	-0.0011044851
72	0x3c668afd	0.014071223
73	0xbb97af31	-0.0046290387
74	0x3cea692b	0.028614601
75	0xbda98cde	-0.082788214
76	0x3d507de5	0.050901312
77	0xbc94265f	-0.018084703
78	0x3da137f3	0.078719996
79	0xbb9d2e59	-0.004796785
80	0x3d13fdb4	0.036130622
81	0xbb73c1bf	-0.003719434
82	0x3cd0e976	0.025501948
83	0xbc677213	-0.0141263185
84	0x3b7b7ce5	0.0038374003
85	0x3c05ae38	0.008159213
86	0x3ce88af8	0.028386578
87	0x3c3b654a	0.011437723
88	0x3b255d61	0.002523266
89	0x3c619a0c	0.013769638
90	0x3cb8a9fb	0.02254199
91	0xbdaa0678	-0.08302015
92	0xbc089e46	-0.008338517
93	0x3ca71a6e	0.020398345
94	0x3c4c9947	0.012487716
95	0x3c57c0d2	0.013168531
96	0x3d1a2fbb	0.037643176
97	0x3c8af52b	0.016962608
98	0xbc0cd3c5	-0.008595412
99	0x3be808f7	0.007081147
100	0xbc17189d	-0.009222177
101	0x3d842f7c	0.064543694
102	0x3cef2343	0.029191619
103	0x3bf483a4	0.007461982
104	0x3cadc56f	0.021212308
105	0x3c8deb84	0.017324217
106	0xbb60878f	-0.0034260487
107	0xbd07f56d	-0.03319304
108	0x3d4d62d2	0.05014307
109	0xbbbd3e3c	-0.005775241
110	0x3c82eeca	0.015983004
111	0xbd0704db	-0.032963615
112	0x3d53bf59	0.051696155
113	0xbd972a6c	-0.07381138
114	0x3c1ef445	0.009701793
115	0xba12bdef	-0.00055977603
116	0x3cc3ed07	0.023916734
117	0xbb8858d2	-0.004160979
118	0x3d0c1e43	0.034208547
119	0x3cdb1119	0.026741551
120	0x3d748229	0.059694443
121	0x3bb1a9fb	0.0054218746
122	0x3ba5e2be	0.00506243
123	0x3d99d0ab	0.075105034
124	0x3ce68246	0.028138291
125	0x3d0c1f46	0.034209512
126	0xbd14920c	-0.036272094
127	0x3d6565db	0.05600534
128	0x3d3abfa2	0.04559291
129	0xbbcfeca6	-0.0063453494
130	0x3d98ad33	0.0745491
131	0x3d1514e2	0.03639687
132	0xbb53ab8c	-0.0032298295
133	0xbd90ec12	-0.07076277
134	0x3c223595	0.00990047
135	0x3d058166	0.032594107
136	0xbd1e8494	-0.038700655
137	0x3c2baf4e	0.010478808
138	0xbd07f3b9	-0.033191416
139	0xbc3262e6	-0.010887837
140	0xbb67ba73	-0.0035358935
141	0xbb9110be	-0.0044270447
142	0x3d3da759	0.046302173
143	0x3a96c4fd	0.0011502799
144	0xbb20c122	-0.0024529179
145	0x3bee81cb	0.007278656
146	0x3a1c8103	0.0005970152
147	0x3cf8b9b4	0.030361988
148	0x3d85b1d7	0.06528061
149	0x3bd4f6e5	0.0064991587
150	0x3c1c61b7	0.009544781
151	0xbd8ad92b	-0.06779703
152	0xbc8d98db	-0.017284801
153	0x3d96b666	0.073590085
154	0x3db87092	0.09005846
155	0x3d06b3b5	0.032886226
156	0x3c0d0b2b	0.00860862
157	0x3c5ddc2a	0.013541261
158	0x3ca84562	0.020540897
159	0xbab64c74	-0.0013908283
160	0x3c161163	0.009159419
161	0x3cf5949f	0.029978095
162	0x3d9f6065	0.07782058
163	0x3d123880	0.035698414
164	0x3c97eb7c	0.018544905
165	0xbd6da35d	-0.058017123
166	0x3d6164e5	0.05502786
167	0x3a849bcc	0.0010117232
168	0xbcb2195d	-0.02174061
169	0xbd63fc8c	-0.05566077
170	0x3bb6b1d4	0.005575398
171	0x3d0afc42	0.033931978
172	0x3cb4cb6f	0.022069661
173	0xbbcbb944	-0.0062171537
174	0x3bd8fdbf	0.0066220458
175	0x3d8e96ed	0.069623806
176	0x3c9dc270	0.019257754
177	0x3d84014b	0.06445559
178	0x3ca252d6	0.01981489
179	0xbdada54d	-0.08478794
180	0x3d106b4b	0.035258573
181	0x3dd0ad5c	0.10189316
182	0x3d28f608	0.04125026
183	0x3d3b67fe	0.04575347
184	0xbd6753cd	-0.056476403
185	0x3d510d8f	0.05103832
186	0xba79426c	-0.0009508494
187	0x3d6bcba9	0.057567272
188	0xb882d35a	-6.23825e-05
189	0x3daece1a	0.085354045
190	0xbc12353b	-0.008923824
191	0x385bfd08	5.2449323e-05
192	0xbc2e508e	-0.010639323
193	0x3bb54a26	0.005532521
194	0x3cd5aa38	0.026082143
195	0x3ba184b6	0.0049291505
196	0x3bf0e4d0	0.0073514953
197	0x3c0c10f7	0.008548967
198	0x3bd0236b	0.0063518784
199	0x3d0ac1cd	0.03387623
200	0x3bb5f0b3	0.005552375
201	0x3c6d8855	0.014497836
202	0xbd8eaad7	-0.06966179
203	0x3c95af9f	0.01827222
204	0xbc8539da	-0.016262937
205	0xbc9a819a	-0.018860627
206	0xba47e486	-0.00076253
207	0x3dc0d1cd	0.09415016
208	0x3bf9e682	0.0076263556
209	0x3d7506b1	0.059820835
210	0x3c8a2f69	0.01686831
211	0xbb61c6ab	-0.003445069
212	0xbcb9fe8e	-0.022704389
213	0x3dbcdb6f	0.09221541
214	0xbd9c12cc	-0.07620773
215	0xbc3cf081	-0.01153195
216	0xbcbd086b	-0.023075303
217	0x3c2eeb5b	0.01067623
218	0x3df91331	0.121618636
219	0x3c0405c4	0.008058015
220	0x3db6f0d0	0.0893265
221	0x3dadace9	0.084802456
222	0xbd2c585f	-0.042076465
223	0x3c38cef8	0.011279814
224	0x3c368324	0.011139665
225	0xbd53b5ca	-0.05168704
226	0x3c95fef6	0.018310051
227	0x3d380e06	0.04493525
228	0x3b70db76	0.0036751903
229	0xbd925eaa	-0.07146962
230	0xbc7e44b0	-0.015519306
231	0xbbcbe379	-0.006222185
232	0x3c9ced83	0.019156223
233	0x3d342f43	0.043990385
234	0x3b9bdaf6	0.004756327
235	0x3d32a194	0.043611124
236	0xbb883dad	-0.004157743
237	0x3c90cebf	0.01767671
238	0xbb21dc37	-0.0024697909
239	0xbd8a5b00	-0.06755638
240	0x3d5b09af	0.053476032
241	0x3cae42a8	0.021272019
242	0x3d092700	0.03348446
243	0x3c8270b0	0.015922874
244	0x3cf2066f	0.029544083
245	0x3ce9e31e	0.02855068
246	0x3ce3a608	0.02778913
247	0x3c5364a6	0.012902414
248	0x3c5b4b2a	0.01338462
249	0x3d332900	0.043740273
250	0xba949640	-0.0011336282
251	0x3c869332	0.01642761
252	0xbd16ec3a	-0.036846377
253	0xbc7893de	-0.015171973
254	0x3b8d64a5	0.0043149763
255	0x3c5b9b24	0.013403688

network_body._body_endoder.seq_layers.0.bias f4 [256]
0	0xbda0fb9b	-0.0786049
1	0xbdf6e2ec	-0.12055001
2	0x3c812fee	0.015769925
3	0x3ddaa044	0.106750995
4	0x3d2527b0	0.040321052
5	0x3d7e7cf4	0.062130883
6	0x3e090c98	0.1338371
7	0xbd12befd	-0.035826672
8	0x3d1d61da	0.038423397
9	0xbda26b83	-0.079306625
10	0xbdd10c2d	-0.102074005
11	0x3dc9bfb0	0.098510146
12	0xbccc3c52	-0.024931107
13	0x3ccf7970	0.02532646
14	0x3c78a2ba	0.015175516
15	0xbdfcfe17	-0.12353151
16	0xbdce1195	-0.10061947
17	0x3d4e1500	0.050312996
18	0xbd4c1693	-0.049826216
19	0xbdb95ef4	-0.09051314
20	0x3da88586	0.082285926
21	0x3cfa7b94	0.030576505
22	0xbe22afc5	-0.15887363
23	0xbdd7f0df	-0.105439894
24	0xbb09cb1f	-0.002102561
25	0xbd968e63	-0.07351377
26	0xbde7793a	-0.11302419
27	0x3e04cdbf	0.12969111
28	0x3d92b46a	0.071633175
29	0x3d06668a	0.032812633
30	0xbe509158	-0.20367944
31	0x3c909a0d	0.017651582
32	0x3c90e6a2	0.0176881
33	0xbd3a2bad	-0.04545181
34	0x3d7d95bf	0.061910387
35	0xbe249f9d	-0.16076513
36	0x3c5fad39	0.013652139
37	0xbe44e0b1	-0.19226338
38	0x3bfc6164	0.0077020396
39	0xbe3b7a22	-0.18308309
40	0x3e0792f4	0.13239652
41	0x3d91d1db	0.07120105
42	0xbdf9648c	-0.12177381
43	0xbd50bbba	-0.05096028
44	0x3d19dca6	0.037563942
45	0x3e12f126	0.14349803
46	0xbd9946e6	-0.07484226
47	0x3daa418b	0.083132826
48	0x3d9640d8	0.07336587
49	0x3d79217b	0.060822945
50	0x3d9e7a57	0.07738178
51	0x3e1fd55b	0.15608732
52	0xbcaded61	-0.021231355
53	0x3e1291ea	0.14313474
54	0x3bc5e9f4	0.0060398523
55	0xbe267002	-0.16253665
56	0x3d408504	0.047001854
57	0xbd960e64	-0.073269635
58	0x3d01ede7	0.031721022
59	0x3de1062e	0.10987507
60	0xbd87ad50	-0.066248536
61	0x3ce1a0a1	0.027542414
62	0x3d42afbe	0.047530882
63	0x3b34a13f	0.002756193
64	0x3d063dcb	0.032773774
65	0xbe1f4cca	-0.15556636
66	0x3d694c0c	0.05695729
67	0xbdbc74a2	-0.092019334
68	0xbdbfd210	-0.09366238
69	0xbd11e33a	-0.03561709
70	0x3d6da296	0.058016382
71	0xbd94517d	-0.07242105
72	0x3d8fb652	0.07017197
73	0x3e18e1a9	0.14929833
74	0x3dc20e4c	0.09475383
75	0xbc3901cf	-0.011291935
76	0x3e15184b	0.14560048
77	0x3d845405	0.06461338
78	0x3d7c3ec9	0.061583314
79	0xbe5d92ae	-0.21637985
80	0xbde27d14	-0.11059013
81	0x3d2b39d3	0.041803192
82	0xbda0b476	-0.0784692
83	0xbe59dbbe	-0.21275231
84	0x3e066eff	0.13128279
85	0xbe2fd8fb	-0.17172615
86	0x3d2eb8ed	0.042656828
87	0x3e26e9c0	0.16300106
88	0x3d9d4f90	0.07681191
89	0x3d53b6c2	0.051687963
90	0x3d3e9113	0.046525072
91	0xbe5384bc	-0.20656103
92	0xbddd12e7	-0.10794621
93	0xbdbf0bf6	-0.09328453
94	0xbe3141ca	-0.17310253
95	0xbdb1a5b6	-0.08674185
96	0xbe3906b3	-0.18068962
97	0xbd2266c1	-0.039648775
98	0xbb20b520	-0.0024522021
99	0x3d20d2d7	0.039263573
100	0x3d94594b	0.07243594
101	0x3dc40f4a	0.09573229
102	0x3d927ffa	0.07153316
103	0xbdad7c8b	-0.0847102
104	0x3cf7ae43	0.030234462
105	0xbdb7a5db	-0.08967181
106	0xbe33bf8f	-0.17553543
107	0x3dffc142	0.12488033
108	0x3d82ec61	0.06392742
109	0xbd86b476	-0.06577389
110	0x3da88512	0.08228506
111	0xbd80e1b6	-0.06293051
112	0x3d2961b7	0.041352954
113	0xbe404b0c	-0.18778628
114	0xbe4a0d3b	-0.1973161
115	0xbda9f627	-0.08298903
116	0x3d98f550	0.07468665
117	0x3d9f9906	0.07792859
118	0xbda224c9	-0.079171725
119	0xbe53f9fc	-0.2070083
120	0x3d580baf	0.052745517
121	0x3aa9b700	0.0012948215
122	0x3c0eb26d	0.008709532
123	0xbd9b1090	-0.075715184
124	0x3e0efd88	0.13963902
125	0x3de20cbd	0.11037586
126	0xbe14a931	-0.14517666
127	0xbe54fc1a	-0.20799294
128	0xbd87506b	-0.066071354
129	0xbdf0bc00	-0.11754608
130	0xbe6ddee3	-0.23229556
131	0xbdc00f30	-0.09377897
132	0xbe428b68	-0.18998492
133	0x3dce0581	0.100596435
134	0x3d1c5908	0.038170844
135	0x3cfc880a	0.030826587
136	0xbe500e7e	-0.20318028
137	0xbe630be3	-0.22172503
138	0x3db3363d	0.087505795
139	0x3cf50174	0.02990792
140	0xbe07b09f	-0.1325097
141	0xbe12e2a1	-0.14344265
142	0xbdbe2d9c	-0.09286043
143	0xbdb13886	-0.08653359
144	0x3e0de3a7	0.13856374
145	0xbe145d30	-0.14488673
146	0x3e2f1f5b	0.17101805
147	0xbb9d0765	-0.0047921413
148	0x3d07ee87	0.03318646
149	0x3d2af3d9	0.041736457
150	0x3d8828d5	0.06648413
151	0xbd879a4d	-0.066212274
152	0xbd94ca33	-0.07265129
153	0xbd88a283	-0.06671622
154	0xbca85cb2	-0.020552013
155	0xbc89c976	-0.016819697
156	0xbdca3789	-0.09873874
157	0xbc79d325	-0.015248095
158	0xbd9ac3b7	-0.07556861
159	0x3d424a99	0.047434423
160	0xbd5c298c	-0.05375056
161	0xbdfc4a96	-0.12318914
162	0x3d9fd201	0.07803727
163	0x3ccf9525	0.025339672
164	0xbde8b384	-0.11362365
165	0x3da6c619	0.08143253
166	0x3e053585	0.13008697
167	0x39ef173f	0.00045602952
168	0x3dc05535	0.09391252
169	0x3da6d079	0.08145232
170	0x3dbf1794	0.09330669
171	0x3db79b50	0.089651704
172	0x3e11a028	0.14221251
173	0xbdab8653	-0.0837523
174	0xbe27d2ba	-0.1638898
175	0xbd91dcd5	-0.071221985
176	0xbca2c5c2	-0.019869689
177	0x3cf898a9	0.030346232
178	0x3e09bb47	0.13450347
179	0x3da999c9	0.08281285
180	0xbda2cc92	-0.07949175
181	0xbe78045f	-0.24220417
182	0xbd8e07a9	-0.06935055
183	0x3cf6162c	0.03003987
184	0xbdb2412e	-0.08703838
185	0xbd94c713	-0.07264533
186	0x3d8c98cb	0.068650804
187	0xbdf0bbd9	-0.11754579
188	0x3dfa7f03	0.12231257
189	0xbd9be841	-0.07612658
190	0x3c51c0cd	0.012802315
191	0x3dd9a537	0.10627215
192	0x3d9d898b	0.0769225
193	0xbd89ff82	-0.067381874
194	0x3d7056a2	0.05867637
195	0x3ca2fb03	0.019895082
196	0xbd3887b1	-0.04505128
197	0xbdc2ede4	-0.0951803
198	0xbe35f84d	-0.177705
199	0xbd92c377	-0.07166188
200	0xbd898e4b	-0.06716593
201	0xbc42af4d	-0.011882615
202	0x3d9d0b0c	0.07668123
203	0x3da03882	0.07823278
204	0xbe43311c	-0.19061702
205	0xbd4cbdf1	-0.04998583
206	0x3d816cb2	0.0631956
207	0x3b736fc7	0.0037145482
208	0xbdeebdc3	-0.11657288
209	0xbd580a18	-0.052744
210	0xbe2c6e6c	-0.16838998
211	0x3e3840b2	0.1799343
212	0xbdb0da58	-0.08635396
213	0xbe137d38	-0.14403236
214	0xbe2e60be	-0.17029092
215	0x3c3a223a	0.011360699
216	0x3d1b2245	0.03787448
217	0xb75b3e30	-1.3067896e-05
218	0xbe463fd5	-0.19360287
219	0xbd512408	-0.051059753
220	0xbd0d11d7	-0.03444084
221	0xbe30e81d	-0.17276044
222	0xbd905f01	-0.070493706
223	0x3d1af9f5	0.037836034
224	0xbde423d3	-0.111396454
225	0x3cc7f892	0.02441052
226	0x3dc16ca4	0.0944455
227	0x3dc90698	0.09815711
228	0xbe6cb2a5	-0.23115022
229	0xbe40a2d1	-0.1881211
230	0xbe3c59bf	-0.1839361
231	0x3d87c815	0.066299595
232	0xbd1587e1	-0.036506537
233	0x3d1ff31f	0.039050218
234	0xbdf6b5a8	-0.12046367
235	0x3d479dd0	0.048734486
236	0xbba64de6	-0.005075204
237	0xbe6ac31f	-0.22925995
238	0x3cb65f09	0.022262113
239	0xbd92b95c	-0.07164261
240	0xbd097d3a	-0.03356669
241	0x3e1e05a8	0.15431845
242	0xbe5ad372	-0.21369722
243	0x3c3dac35	0.011576702
244	0xbdb56928	-0.088579476
245	0x3d5e433a	0.05426333
246	0x3d721a27	0.059106972
247	0x3dcbd63d	0.09952972
248	0x3d118912	0.03553111
249	0xbc009614	-0.007848281
250	0x3d9799b8	0.074023664
251	0xbe335091	-0.17511202
252	0x3cfdd78e	0.030986574
253	0xbdb795d8	-0.08964127
254	0x3c9e54d2	0.019327555
255	0x3d7294df	0.059224006

network_body._body_endoder.seq_layers.0.weight f4 [256, 82]
0	0xbe28cb48	-0.16483796
1	0x3e35121a	0.17682686
2	0xbcada356	-0.021196049
3	0x3d4ad55f	0.049519893
4	0x3d3b48bc	0.04572366
5	0x3c123196	0.008922955
6	0xbd5d7490	-0.05406624
7	0x3d361da6	0.04446187
8	0xbde8d8c3	-0.11369469
9	0xbb71f45f	-0.0036919338
10	0xbe2ad908	-0.16684353
11	0x3dc0d685	0.09415916
12	0x3d942768	0.07234079
13	0x3e3a464d	0.1819088
14	0xbe185db5	-0.14879496
15	0xbdc6fcee	-0.09716211
16	0xbe1c250d	-0.15248509
17	0xbd3c80fd	-0.04602145
18	0xbd1a28fd	-0.037636746
19	0x3d23fc9d	0.040035833
20	0x3e2b9fb1	0.16760136
21	0xbc525597	-0.012837789
22	0xbe128b54	-0.14310962
23	0xbc54d3fb	-0.012989993
24	0xbd5ce6a0	-0.05393088
25	0x3cdb73b3	0.026788568
26	0xbd3fbc2c	-0.046810314
27	0x3e24e2c2	0.16102126
28	0xbc7777eb	-0.015104274
29	0xbdd0666a	-0.10175784
30	0x3e310975	0.17288764
31	0x3e138b08	0.14408505
32	0x3caae4b5	0.02086101
33	0xbd72d83e	-0.059288256
34	0xbc8f5d5f	-0.017500577
35	0xbce75e56	-0.028243225
36	0xbddd6126	-0.10809545
37	0xbdae3926	-0.08506994
38	0xbda84911	-0.08217061
39	0x3990a181	0.0002758615
40	0xbebf0509	-0.3730853
41	0xbdaf23c4	-0.085517436
42	0xbd9165f0	-0.07099521
43	0xbe6eae6e	-0.23308727
44	0xbca39f88	-0.019973531
45	0x3dd8d025	0.105865754
46	0xbe098a83	-0.13431744
47	0xbe3999d0	-0.18125081
48	0x3d82b2c3	0.06381752
49	0xbd8f03cc	-0.06983146
50	0xbdfb6821	-0.122757204
51	0xbd27dfeb	-0.04098503
52	0xbdfbac8a	-0.122887686
53	0xbe508128	-0.20361769
54	0xbdf2e0ce	-0.11859284
55	0x3d66ee00	0.05637932
56	0x3dc4150d	0.095743276
57	0x3d8d38ea	0.06895621
58	0xbea03301	-0.31288913
59	0xbc0022a2	-0.007820757
60	0xbd33982a	-0.043846287
61	0x3daf0401	0.085456856
62	0x3d6b8155	0.057496388
63	0x3e2acaf2	0.1667898
64	0xbd63c011	-0.05560309
65	0xbea1e11a	-0.3161705
66	0xbe32ca4d	-0.17459984
67	0xbb83cb94	-0.004022071
68	0xbd630d20	-0.05543244
69	0xbd563164	-0.052293196
70	0xbd9a0c3b	-0.07521864
71	0x3db7f523	0.08982303
72	0xbd123839	-0.03569815
73	0x3dafc4c6	0.085824534
74	0xbd5542fa	-0.052065827
75	0x3dbe4828	0.092911065
76	0xbc33aa26	-0.0109658595
77	0x3d573165	0.05253734
78	0xbdd2dd49	-0.10296113
79	0xbe0b0308	-0.13575375
80	0xbe6f074c	-0.23342627
81	0xbd3b4bab	-0.04572646
82	0x3e126e00	0.14299774
83	0x3dca5e50	0.0988127
84	0x3e1a781e	0.15084884
85	0xbcc40319	-0.023927258
86	0x3b82a6d0	0.0039871708
87	0x3e4f37d0	0.20236135
88	0x3be8032b	0.007080456
89	0xbce6626e	-0.028123107
90	0x3da642eb	0.08118232
91	0x3d42bf97	0.047545996
92	0xbc939463	-0.018015092
93	0x3e3192bc	0.17341131
94	0x3db7c637	0.08973353
95	0xbde17d41	-0.110102184
96	0xbe015879	-0.12631406
97	0x3df0c2fa	0.11755939
98	0x3d505816	0.050865255
99	0xbde5e319	-0.11224956
100	0x3caaa28a	0.020829458
101	0x3e77c902	0.24197772
102	0xbd94ae64	-0.07259825
103	0xbd2a9fd5	-0.041656334
104	0xbe58679b	-0.21133272
105	0x3cdaf873	0.026729798
106	0xbcf62fb4	-0.030052043
107	0xbdd0c864	-0.101944715
108	0xbd580a1e	-0.052744024
109	0x3d1cc1b5	0.03827067
110	0xbccd84e0	-0.025087774
111	0x3c498097	0.012298725
112	0xbd6f9ebb	-0.058500987
113	0x3de6526b	0.11246189
114	0xbb7856a4	-0.0037893439
115	0xbd82a653	-0.0637938
116	0x3d06b9a6	0.032891892
117	0xbdd030c6	-0.10165553
118	0xbd806ef7	-0.06271165
119	0x3e981b45	0.29708305
120	0xbde03751	-0.10948051
121	0x3c42a32e	0.011879725
122	0x3db9c9a5	0.09071664
123	0x3dcfc79c	0.10145494
124	0xbcb73ba6	-0.02236731
125	0x3cd5e7a0	0.026111424
126	0xbda3636c	-0.079779476
127	0x3d8a07b3	0.0673975
128	0x3e53774c	0.20650977
129	0xbe91aba3	-0.2845126
130	0x3bccc3d2	0.0062489295
131	0xbde3a767	-0.11115914
132	0x3be087b2	0.0068521136
133	0x3d4904f5	0.049076993
134	0xbdaeb7cd	-0.08531151
135	0x3d90ea40	0.0707593
136	0x3d9e1a31	0.07719839
137	0xbcd209fb	-0.025639525
138	0xbe28d200	-0.16486359
139	0xbdea0b21	-0.11427904
140	0x3eb40684	0.3516122
141	0xbe23ec15	-0.16008027
142	0xbe28dab2	-0.16489676
143	0xbe326ebe	-0.17425057
144	0xbc18d795	-0.0093287425
145	0xbda1d1a0	-0.07901311
146	0x3d0fa1f7	0.03506657
147	0x3d8339ac	0.064074844
148	0xbddd0414	-0.107917935
149	0xbe2de54c	-0.16982001
150	0x3e063e48	0.13109696
151	0xbdde637f	-0.10858821
152	0x3e1ddf20	0.15417147
153	0xbd972854	-0.07380739
154	0x3dc0f11d	0.09420989
155	0xbe150516	-0.14552721
156	0xb93bbac2	-0.00017903282
157	0xbd6a4890	-0.057198107
158	0xbd8b5162	-0.06802632
159	0xbe10811c	-0.14111751
160	0x3cb7f899	0.022457408
161	0x3c328b61	0.010897488
162	0x3e0ad12d	0.13556357
163	0xbe30856c	-0.17238396
164	0x3ce30f83	0.027717358
165	0x3d99767c	0.07493302
166	0xbdce1fb3	-0.1006464
167	0x3e41f041	0.18939306
168	0xbde6ab45	-0.11263136
169	0x3c24ee11	0.010066525
170	0x3d46ee63	0.048567187
171	0x3da65b13	0.0812284
172	0xbe30c362	-0.17262033
173	0xbc95d766	-0.018291187
174	0xbddcee51	-0.10787643
175	0xbe2c0b21	-0.1680112
176	0xbe2b0276	-0.16700158
177	0xbdb9830c	-0.09058198
178	0xbddf3045	-0.108978786
179	0xbc96ebcc	-0.018422984
180	0xbcc6ec8a	-0.024282712
181	0xbd909bb9	-0.07060952
182	0xbe128081	-0.14306833
183	0xbdd92d9b	-0.10604402
184	0x3cad3985	0.021145592
185	0x3bfc39a1	0.0076972996
186	0x3dd72b79	0.105063386
187	0xbe1a982b	-0.1509711
188	0x3cfaaba3	0.03059942
189	0x3e006d3b	0.12541668
190	0x3c89a4d1	0.016802223
191	0xbd0a148b	-0.033710998
192	0xbd9734be	-0.07383107
193	0x3e0be968	0.13663256
194	0xbe02200c	-0.12707537
195	0x3d714f65	0.058913607
196	0xbd43a797	-0.047767248
197	0x3ca79aba	0.020459522
198	0x3e4f7892	0.20260838
199	0xbde7ea82	-0.11324026
200	0x3d7b04af	0.061283763
201	0x3c135b3c	0.00899392
202	0x3eb79fc3	0.35864076
203	0x3dbda3af	0.09259736
204	0x3da55803	0.080734275
205	0xbcecab82	-0.028890375
206	0x3e233d07	0.15941249
207	0x3b0d1ab6	0.0021530814
208	0x3b1ced26	0.0023945062
209	0xbd9ab77c	-0.07554528
210	0x3dc01f01	0.093809135
211	0x3da58a20	0.08082986
212	0xbdabab88	-0.08382326
213	0xbdacc5e6	-0.08436184
214	0xbd20ee20	-0.039289594
215	0x3df42ac1	0.11922217
216	0x3d094cd1	0.033520523
217	0xbd101151	-0.035172764
218	0xbe37ff3e	-0.17968461
219	0x3cd2a2ec	0.025712453
220	0xbd51ac09	-0.051189456
221	0x3c981163	0.018562978
222	0x3dae171d	0.08500502
223	0xbd610328	-0.05493465
224	0xbdf45f29	-0.11932213
225	0xb994d949	-0.0002839065
226	0x3daadf3a	0.08343358
227	0xbe1a69d8	-0.15079439
228	0xbd765d1c	-0.06014739
229	0xbdedad2f	-0.11605298
230	0x3e1d5c05	0.15367134
231	0xbb53bb6d	-0.003230776
232	0x3df5eb5a	0.120077804
233	0xbd670443	-0.05640055
234	0x3e5c0d74	0.21489507
235	0x3ded5875	0.115891375
236	0xbe66dbcf	-0.22544788
237	0x3d126ead	0.03575008
238	0x3c99f53b	0.018793693
239	0x3da9563b	0.082684
240	0xbc289c0e	-0.010291113
241	0x3cf2b93c	0.029629342
242	0x3d8d2877	0.06892484
243	0x3df93e73	0.12170114
244	0xbae844a0	-0.0017720647
245	0x3d056b26	0.032572888
246	0xbd0b4384	-0.033999935
247	0x3ddb60ef	0.10711848
248	0xbb62274e	-0.003450829
249	0x3cae7ee5	0.021300742
250	0xbbd88b48	-0.0066084005
251	0x3d8108cc	0.06300506
252	0x3d984e90	0.074368596
253	0xbe087924	-0.13327461
254	0x3d354fee	0.04426568
255	0x3cbdf3c6	0.02318753

network_body._body_endoder.seq_layers.2.bias f4 [256]
0	0xbe1c5fd3	-0.15270929
1	0x3d6e919a	0.058244325
2	0xbe204ff1	-0.15655495
3	0xbc709637	-0.0146842515
4	0xbe1aa5e3	-0.15102343
5	0xbcd247b7	-0.025668962
6	0x3ca7a307	0.02046348
7	0x3d3c2b94	0.045939997
8	0xbd2a60b9	-0.04159615
9	0x3cc8c869	0.024509626
10	0xbcf59d8d	-0.029982353
11	0x3d38bebf	0.045103785
12	0xbdfb63b7	-0.122748785
13	0xbd13ed1c	-0.036114797
14	0x3c4d2cfa	0.01252293
15	0x3c4bf634	0.012448836
16	0xbe0afeff	-0.13573836
17	0xbe15c874	-0.14627248
18	0x3cce8558	0.025210068
19	0x3d4cc327	0.0499908
20	0xbdcd3118	-0.100191295
21	0x3c11c9e0	0.008898228
22	0xbc070579	-0.008241051
23	0x3cf22aee	0.029561486
24	0x3d0a0711	0.033698145
25	0x3d0e1858	0.034691185
26	0xbe111e61	-0.14171745
27	0x3c8ec62d	0.017428482
28	0xbe027067	-0.1273819
29	0x3ca01bed	0.019544566
30	0x3c16e7b3	0.009210515
31	0xbe1d0034	-0.15332109
32	0xbd775993	-0.06038816
33	0x3b6b1eb7	0.0035876462
34	0xbe08247d	-0.13295169
35	0x3cfb864d	0.030703688
36	0xbe045926	-0.12924632
37	0x3d28837a	0.04114101
38	0x3ced226b	0.028947076
39	0x3cb2457e	0.021761652
40	0x3d036064	0.032074347
41	0x3caaffdf	0.020873962
42	0x3cd6af54	0.02620665
43	0x3d08d87d	0.033409584
44	0xbd58c8ce	-0.052925877
45	0x3d16c455	0.03680833
46	0xbd85ed6e	-0.06539427
47	0x3d45f304	0.04832746
48	0xbcdb794c	-0.026791237
49	0xbe1d4dd0	-0.15361714
50	0xbe18982d	-0.149018
51	0x3d3d4079	0.046204064
52	0x3d06029b	0.03271733
53	0x3c8ae4b7	0.016954763
54	0x3c1320c8	0.008979984
55	0xbe22f60c	-0.15914172
56	0x3b4ed3d2	0.003155936
57	0x39cbc6e9	0.00038867377
58	0xbca9d669	-0.020732122
59	0xbcc07fe7	-0.023498489
60	0x3ca26288	0.019822374
61	0x3c89d083	0.016823059
62	0xbe14b31f	-0.14521454
63	0xbcb27bf8	-0.021787629
64	0xbda9404a	-0.08264215
65	0x3ce9e993	0.02855376
66	0xbe13672a	-0.14394823
67	0xbe00d327	-0.12580548
68	0xbe1c8a34	-0.15287095
69	0x3c866984	0.016407736
70	0x3d33dcdf	0.04391181
71	0xbe072215	-0.13196595
72	0xbb3210a9	-0.0027170575
73	0xbcbd6698	-0.02312021
74	0x3ce27b35	0.02764664
75	0x3d19a149	0.03750733
76	0x3d5f7156	0.054551445
77	0xbd5bb307	-0.05363753
78	0x3d4cd566	0.0500082
79	0xbd4096c2	-0.047018774
80	0x3d597415	0.05308922
81	0xbe26c0d1	-0.16284491
82	0x3cd13397	0.025537295
83	0xbc245ac7	-0.010031409
84	0x3c3fcaaa	0.011706034
85	0xbe067759	-0.13131465
86	0x3c145df9	0.009055608
87	0x3c04f063	0.008113953
88	0xbe0bceaf	-0.13653062
89	0xbb2b5787	-0.00261447
90	0x3c447c9a	0.011992598
91	0x3c166461	0.009179206
92	0xbe29c4d2	-0.16578987
93	0x3c2572e1	0.01009819
94	0x3c916cc8	0.017752066
95	0x3c55b424	0.013043437
96	0x3d1f8564	0.03894557
97	0x3d289e75	0.04116674
98	0xbd6f5074	-0.058426335
99	0xbd72b955	-0.059258778
100	0xbd38c092	-0.045105524
101	0x3c2e4093	0.010635513
102	0x3c5200da	0.012817586
103	0xbe107ebc	-0.14110845
104	0xbb9dd1ec	-0.0048162844
105	0x3d0725f1	0.032995168
106	0xbd52bfae	-0.05145233
107	0xbc76896a	-0.0150474105
108	0x3d4037f3	0.046928357
109	0xbd4878da	-0.048943378
110	0x3ce6286d	0.028095448
111	0xbb24cfa8	-0.0025148187
112	0x3cba0043	0.022705203
113	0x3d2b1fed	0.041778494
114	0xbd1dc741	-0.0385201
115	0xbe2a99e9	-0.16660275
116	0x3d45e3b7	0.04831287
117	0x3d183afc	0.037165627
118	0x3ce399fd	0.027783388
119	0x3d2d49ec	0.042306826
120	0x3d3f48fd	0.046700466
121	0xbe26551c	-0.16243404
122	0xbce6a4e1	-0.028154792
123	0x3d35574a	0.0442727
124	0x3ca3e887	0.020008339
125	0x3cd00f6b	0.025397977
126	0xbc1450d0	-0.00905247
127	0x3d1a2897	0.037636366
128	0x3d12ad4e	0.035809807
129	0xbe1fad13	-0.15593366
130	0xbbb061db	-0.005382759
131	0x3ce7a45f	0.02827662
132	0xbc5fea28	-0.013666667
133	0x3cc70347	0.024293555
134	0x3ca9e56f	0.020739285
135	0x3d217ad1	0.039423767
136	0x3a040e19	0.0005037501
137	0x3cafc878	0.021457896
138	0xbd185f81	-0.037200455
139	0xbd75faee	-0.06005376
140	0xbcd5d658	-0.026103184
141	0xbd5f62e5	-0.054537673
142	0x3d31318e	0.04326015
143	0xbe1828d6	-0.14859328
144	0xbe27586d	-0.16342326
145	0xbcc3cb02	-0.023900513
146	0xbe149a25	-0.14511926
147	0x3ce9b457	0.028528376
148	0x3d52b6e0	0.051443934
149	0xbe23bfab	-0.15991084
150	0xbdd7b802	-0.105331436
151	0xbbcc8c7d	-0.0062423334
152	0xbd264060	-0.040588737
153	0xbb434575	-0.0029796038
154	0xbc9ae263	-0.018906778
155	0x3d0ce59b	0.034398656
156	0xbe112710	-0.14175057
157	0xbe0f9f21	-0.14025547
158	0x3ced1b69	0.028943734
159	0xbe0f3425	-0.13984735
160	0x3bc61843	0.0060453727
161	0x3d24be97	0.040220823
162	0x3d0e5cf6	0.034756623
163	0x3d1cddfb	0.038297635
164	0x3c8be92d	0.01707896
165	0xbb4d5c27	-0.0031335445
166	0x3d386d86	0.045026325
167	0xbdd60288	-0.104497015
168	0xbd120652	-0.03565056
169	0x3d9e300f	0.0772401
170	0x3c102d7d	0.008799908
171	0x3c5db7f3	0.013532626
172	0x3d26c21d	0.040712465
173	0xbdad19aa	-0.08452161
174	0xbce9cdae	-0.028540459
175	0x3d4db745	0.050223608
176	0x3d150f4e	0.03639155
177	0x3d3eb3d3	0.046558212
178	0x3c8fb1df	0.01754087
179	0x3b2c7dc8	0.0026320089
180	0x3d002ba4	0.03129162
181	0xbd0cc0b0	-0.03436345
182	0x3ccc8914	0.024967708
183	0x3d757d55	0.05993398
184	0xbc9ab771	-0.0188863
185	0x3d3d8134	0.046265796
186	0xbe233aa4	-0.15940338
187	0x3d35a415	0.044345934
188	0xbc5133a1	-0.012768657
189	0x3c4782b6	0.01217716
190	0xbd11cb86	-0.035594486
191	0xbe063053	-0.13104372
192	0xbd4f9321	-0.050677422
193	0xbe1077ea	-0.14108244
194	0x3c670b3c	0.0141018
195	0xbe093e71	-0.13402726
196	0xbdff3091	-0.12460435
197	0x3cb77f44	0.022399552
198	0xbe235bfb	-0.15953057
199	0x3cfa1c44	0.030531056
200	0x3ba9d613	0.0051829903
201	0xbe156499	-0.14589156
202	0x3dbafc3e	0.09130143
203	0x3d3ae062	0.045624144
204	0xbd5ff2af	-0.0546748
205	0xbd2009cc	-0.039071843
206	0xbdd06ee8	-0.10177404
207	0xbd1f1539	-0.0388386
208	0xbe12aca9	-0.14323677
209	0x3d5aec19	0.053447817
210	0x3cc1b056	0.023643654
211	0xbe2340a1	-0.15942623
212	0xbc37cfab	-0.0112189455
213	0x3d455eb7	0.04818603
214	0xbc2c67d8	-0.010522805
215	0xbd39e8da	-0.04538808
216	0xbd268641	-0.04065538
217	0xbe02c654	-0.12770969
218	0xbd6095a3	-0.054830205
219	0xbe123f76	-0.14282021
220	0xbc91cb5d	-0.017797166
221	0x3ca9e331	0.020738216
222	0x3baa0210	0.005188234
223	0xbe02b240	-0.1276331
224	0x3c8039c9	0.015652554
225	0xbcbb73ba	-0.022882331
226	0x3c06fbb4	0.008238722
227	0x3d2286cb	0.03967933
228	0xbd642e20	-0.05570805
229	0x3d8d77ae	0.06907593
230	0xbd16d84a	-0.036827363
231	0xbdc0b09b	-0.09408685
232	0x3d3b4eec	0.045729563
233	0x3cb0b78a	0.021571893
234	0xbe10bfd1	-0.14135672
235	0x3d5256d9	0.051352356
236	0xbe043193	-0.12909536
237	0x3cc6a899	0.024250316
238	0xbe0c8fa0	-0.13726664
239	0xbb862888	-0.004094187
240	0x3d44879d	0.047980893
241	0x3d004298	0.03131351
242	0x3ca914f4	0.020639874
243	0x3a92ad0b	0.0011190487
244	0xbcbcb7b9	-0.023036825
245	0x3d28d96d	0.04122298
246	0x3d5bd8ca	0.053673543
247	0xbe1fac02	-0.1559296
248	0x3caf2891	0.021381648
249	0xbb27e1f4	-0.0025616856
250	0xbe1e7271	-0.15473343
251	0x3ca06fd7	0.01958458
252	0xbca47b4e	-0.020078328
253	0xbd2560f5	-0.04037567
254	0xbda255a0	-0.07926488
255	0x3c32567f	0.01088488

network_body._body_endoder.seq_layers.2.weight f4 [256, 256]
0	0x3c133154	0.008983929
1	0x3e792f73	0.24334507
2	0xbd4d8618	-0.05017671
3	0xbdb1c77e	-0.08680628
4	0x3d103db2	0.035215087
5	0x3d7dc21e	0.061952703
6	0xbe220042	-0.15820411
7	0x3cba83c7	0.022767914
8	0xbd6117ef	-0.054954465
9	0x3de5a055	0.112122215
10	0xbc2179d3	-0.009855705
11	0xbde36e34	-0.11105004
12	0x3c8acea5	0.016944239
13	0xbcfb21a9	-0.030655699
14	0xbdb5cab6	-0.08876555
15	0x3e9525d9	0.29130438
16	0x3df402c0	0.11914587
17	0xbdd2196d	-0.10258756
18	0xbd0af051	-0.03392059
19	0x3db43c4d	0.08800564
20	0xbdfc346f	-0.123146884
21	0xbb32f7cd	-0.0027308345
22	0x3e57993f	0.21054552
23	0x3e29ac37	0.16569601
24	0x3d16d9c0	0.036828756
25	0x3e157b6e	0.14597866
26	0x3cb84983	0.02249599
27	0xbe345c51	-0.17613341
28	0xbddb5f4a	-0.10711534
29	0xbc049342	-0.00809175
30	0x3df8ee72	0.12154855
31	0x3ca1dfae	0.01975998
32	0xbdfb65a5	-0.122752465
33	0xbd5b8251	-0.053591076
34	0xbdf7498d	-0.120745756
35	0x3dd0ad45	0.101892985
36	0xbd33464c	-0.043768212
37	0x3e1be43f	0.15223788
38	0x3d37c2d0	0.044863522
39	0x3ba77387	0.0051102075
40	0xbe7b36a0	-0.24532557
41	0xbd1b31f3	-0.037889432
42	0x3e38ecd4	0.18059093
43	0xbdf31ad8	-0.118703544
44	0x3b3d0d06	0.0028846874
45	0x3ca65cbc	0.020307891
46	0xbc109a89	-0.008825907
47	0xbdc213ed	-0.09476457
48	0xbde7b1db	-0.1131322
49	0xbbbaaab5	-0.0056966194
50	0xbdec740d	-0.115455724
51	0xbe47656a	-0.1947228
52	0xbd96467d	-0.07337663
53	0x3a1f87db	0.00060856127
54	0xbdd7872d	-0.105238296
55	0x3e0faf00	0.14031601
56	0x3d5b951f	0.05360901
57	0x3e23bbcf	0.15989612
58	0xbe2947af	-0.16531251
59	0xbd1dd359	-0.038531635
60	0xbc41dbe3	-0.01183221
61	0x3cc727d8	0.024310991
62	0x3d4375b5	0.047719676
63	0x3d566fac	0.052352592
64	0x3d35aaed	0.04435246
65	0x3dea085c	0.11427376
66	0xbd0b2d19	-0.033978555
67	0x3de71588	0.11283404
68	0x3e1f6db3	0.1556919
69	0xbd18e82e	-0.0373308
70	0xbe14df07	-0.14538203
71	0x3e3c22d8	0.18372667
72	0x3cf2cf28	0.029639795
73	0xbe14320c	-0.14472216
74	0xbca6a525	-0.020342419
75	0x3cae623b	0.021287074
76	0xbe53a3d5	-0.20667966
77	0xbdb370d3	-0.08761754
78	0xbdc9e579	-0.098582216
79	0x3e0bd38d	0.13654919
80	0x3e1c92d8	0.15290391
81	0x3c4c52f0	0.012470946
82	0x3d682b6f	0.056682047
83	0x3e7a23ee	0.24427769
84	0xbdcb55a4	-0.09928444
85	0x3cdf68f3	0.027271723
86	0x3d41b2cc	0.047289655
87	0xbe0b1cd7	-0.1358522
88	0xbdaadc94	-0.08342853
89	0xbe0ceacc	-0.13761443
90	0xbcff839b	-0.031190684
91	0x3e43bb80	0.19114494
92	0x3ce32e95	0.027732173
93	0x3be16661	0.0068786596
94	0x3e6d9525	0.23201425
95	0x3d9d33d9	0.07675905
96	0x3e00f22d	0.12592383
97	0x3d0f6632	0.03500957
98	0x3d49ab18	0.049235433
99	0xbc93e873	-0.018055176
100	0xbe1ba7e3	-0.15200762
101	0xbe621b6b	-0.22080772
102	0xbe00b1b9	-0.12567796
103	0x3dd7d7e2	0.10539223
104	0xbd2bef4e	-0.041976266
105	0x3e230931	0.15921475
106	0x3df7301d	0.12069724
107	0xbe39f5f5	-0.18160231
108	0xbdd5e47e	-0.10443972
109	0x3d4b99de	0.049707286
110	0x3c9847af	0.018588869
111	0xbda14a3f	-0.078754894
112	0x3da8dfa9	0.08245785
113	0x3dd09b6a	0.10185893
114	0x3e2479e9	0.1606213
115	0x3dc13450	0.09433806
116	0xbd8290ba	-0.06375261
117	0xbe48f755	-0.196256
118	0xbd484f1c	-0.04890357
119	0x3d690c5b	0.05689655
120	0xbdbbba52	-0.09166397
121	0xbda8b86a	-0.08238299
122	0x3c346280	0.011009812
123	0x3dbf0d55	0.09328715
124	0xbd0ba220	-0.03409016
125	0xbdaff906	-0.08592419
126	0x3de7738e	0.11301337
127	0x3e6197d4	0.22030574
128	0x3def127d	0.11673448
129	0x3e21a71b	0.15786402
130	0x3ddf7f30	0.10912931
131	0x3df9fd5c	0.122065276
132	0x3e3e5b48	0.18589509
133	0xbe57847c	-0.21046633
134	0x3de98cab	0.114037834
135	0x3da8900b	0.08230599
136	0x3de819b3	0.11333027
137	0x3d34ae15	0.04411133
138	0xbe678d51	-0.22612502
139	0xbe14369f	-0.14473961
140	0xbd3f1fbf	-0.046661135
141	0x3de36875	0.11103908
142	0x3ddd4a32	0.10805167
143	0x3d4a0ea7	0.04933038
144	0xbdc84b66	-0.09780006
145	0x3d9122f1	0.07086743
146	0xbd0e74d8	-0.0347794
147	0xbdc42d5e	-0.095789656
148	0xbcc2690e	-0.023731735
149	0xbd5a2127	-0.053254273
150	0xbdc8a3f8	-0.097968996
151	0x3d92c849	0.071671076
152	0x3e0d0eaf	0.13775133
153	0x3e2ede93	0.17077093
154	0xbd6ed69d	-0.05831014
155	0xbd0368a7	-0.032082226
156	0x3d974a7e	0.07387255
157	0xbd7567eb	-0.059913557
158	0x3d9465e0	0.072459936
159	0xbb078dca	-0.0020683878
160	0x3b0fba92	0.0021931273
161	0x3da58728	0.0808242
162	0x3d406f37	0.046981063
163	0xbc3709b1	-0.011171744
164	0x3dbd4d9d	0.09243319
165	0xbe5fff16	-0.21874651
166	0xbe0d8174	-0.13818914
167	0x3d84fe3d	0.064938046
168	0xbe23ad41	-0.1598406
169	0xbdd18147	-0.10229736
170	0xbd6efb3b	-0.05834506
171	0xbd789bda	-0.060695507
172	0xbe8142cb	-0.25246271
173	0x3db1d4d0	0.08683169
174	0x3e5302e5	0.20606573
175	0x3c6bd40e	0.0143938195
176	0xbd9b4e16	-0.07583253
177	0xbd8bce5d	-0.0682647
178	0xbdb30c83	-0.08742621
179	0xbe15e7f6	-0.14639267
180	0x3dda1c58	0.106499374
181	0x3e41d533	0.18928985
182	0x3d079920	0.033105016
183	0xbe40efd8	-0.18841493
184	0x3da45a10	0.080249906
185	0x3d652d49	0.05595139
186	0xbdd30567	-0.10303765
187	0x3deba89f	0.11506771
188	0xbe2ed99e	-0.17075202
189	0x3da5900a	0.08084114
190	0xbcb3804e	-0.021911766
191	0xbdbb6408	-0.09149939
192	0xbe085d6d	-0.13316889
193	0x3d624c06	0.055248283
194	0xbcb5831e	-0.022157248
195	0xbdcb0e72	-0.099148646
196	0xbd22602e	-0.039642505
197	0x3e22cf61	0.15899421
198	0x3e28cee5	0.16485174
199	0x3e13d728	0.14437544
200	0x3d45ada9	0.04826132
201	0xbe166d93	-0.14690237
202	0xbd2485b7	-0.040166583
203	0xbe1c0532	-0.15236357
204	0x3e1918ed	0.14950915
205	0x3c1f183b	0.009710367
206	0xbdf43a9e	-0.11925243
207	0xbd9712c4	-0.07376626
208	0x3ccec586	0.02524067
209	0x3d8bf5a6	0.06833963
210	0x3dacaf95	0.08431927
211	0xbe640915	-0.2226909
212	0x3e0032b6	0.12519345
213	0x3d3bedd6	0.045881115
214	0x3cdf23bd	0.027238721
215	0x3d34ab88	0.044108897
216	0xbdb2f82a	-0.0873874
217	0x3d1fe422	0.039035924
218	0x3df476cf	0.119367234
219	0x3e2a1123	0.166081
220	0x3cbdb9f9	0.023159968
221	0x3e0fd240	0.14045048
222	0x3df43003	0.1192322
223	0x3d3703be	0.044681303
224	0x3d98b9ba	0.074572995
225	0xbe0e83b4	-0.13917428
226	0x3ca2cbe0	0.019872606
227	0xbe132f46	-0.14373502
228	0x3dee51e4	0.11636713
229	0x3e7980a8	0.24365485
230	0x3e695b59	0.22788753
231	0xbe1ec23d	-0.15503784
232	0x3cb05c02	0.021528248
233	0xbca43092	-0.020042691
234	0x3ddd4ac5	0.10805277
235	0xbdd590e2	-0.10428025
236	0xbde02080	-0.10943699
237	0x3e55b471	0.20869614
238	0xbe1abb7d	-0.15110584
239	0x3df69bdd	0.12041447
240	0xbc8e926a	-0.0174038
241	0xbe140f8d	-0.14459057
242	0x3da88610	0.082286954
243	0xbda26edc	-0.07931301
244	0x3dbf08bc	0.09327838
245	0x3da30fd6	0.07962005
246	0xbdb42c88	-0.08797556
247	0xbe17e8bf	-0.1483488
248	0x3cf30370	0.029664725
249	0x3c70f179	0.014706009
250	0xbdd6d93d	-0.10490654
251	0x3e093c7d	0.1340198
252	0xbd1ff7fd	-0.03905486
253	0x3bb5aca6	0.005544263
254	0xbd4ba4cd	-0.049717713
255	0xbdd7a67c	-0.10529801
